system_ext/etc/barrage_v3.tflite (tflite, 743884 bytes, 42 tensors)

model/re_lu/Relu6;model/batch_normalization/FusedBatchNormV3;model/in_conv/BiasAdd/ReadVariableOp;model/in_conv/BiasAdd;model/in_conv/Conv2D f4 [32]
00000000: a4fd d13e f82c 27bf dd18 b0be 7f5e 21bf
00000010: f2eb 00bf 8435 783e a4fa 04bf 4715 9c3e
00000020: 1737 71bf 8e4a 453d f202 d8be 1f61 253f
00000030: 0a4c 3bbf 773a b2be 716d a1be 8026 dcbe
00000040: 04ea 843d 8ef7 2ebf da62 3d3d e0b2 26bf
00000050: d3ae ae3e a74d 0ebf e9bd 16bf 6875 6abe
00000060: 09d9 1dbf f0ad 0f3f 2cf7 36bf 66db ad3d
00000070: 8c5e 0dbf 060a 103f 3dd5 05bf a7d2 db3e
0.41013825 -0.6530299 -0.3439397 -0.63034815 -0.50360024 0.24239165 -0.5194495 0.30484983
-0.94224685 0.048166804 -0.42189747 0.6460132 -0.731629 -0.3481023 -0.3152881 -0.42998123
0.064899474 -0.6834649 0.04623685 -0.6511669 0.34117755 -0.5558724 -0.5888353 -0.2289635
-0.61659294 0.5612478 -0.71470904 0.084891126 -0.5522239 0.56265295 -0.522785 0.42934152

model/batch_normalization_1/FusedBatchNormV3 f4 [96]
00000000: 7d7b 5fbf 39b1 aebe 9a81 f73e f47d 2e3e
00000010: 2f83 b53e 0fb3 05bf 8be4 5b3e 2829 16bf
00000020: d6a4 193e 1484 06bf f140 b4be 20d6 08be
00000030: 9cf1 aebc e926 27be 8ce0 3abd c8c3 82be
00000040: 9e72 d83e b048 4cbf 4aca 0d3e 5c6e 663e
00000050: 6d71 f6be 83c3 c2be 8831 84be 7660 14bf
00000060: 7e2b febe ab54 2bbf 761f 4abd 1242 7ebf
00000070: eae1 12be 948f ac3d 06ca b0bd 26bb 3bbe
00000080: 96e7 21bf 85bd 163f 2c83 cbbe ba47 66be
00000090: d289 1a3f fe1a f63d 10cb 833e 59ab 283f
000000a0: 2de0 b13e ccd0 89be 3078 51bf 0441 09bd
000000b0: 984b bfbc 32ad 17bf 38f0 183c 8db5 bebe
000000c0: 93b4 9e3e 1c58 52be 15c8 343f 9f74 5dbf
000000d0: 296b 30bf 3f19 1e3e 34fe 3dbf 3567 173f
000000e0: 89e4 9abe fd0d 0f3f b994 f9bc 0eea 6fbe
000000f0: a8c4 8bbe 0a73 d13e 347b a13c 8c24 173f
00000100: 070a b9be 88a2 333e 56f1 a63e f9bb a8be
00000110: 6e9a b8be dac3 d53e 04c6 e03e d011 77bf
00000120: 4468 0e3c b95f 8abd 3034 303e eaf3 a2be
00000130: 06ff c2be ca61 f2be 04ad b6bd f2c5 a83c
00000140: acec f3be b6c9 243f 1a20 0e3e a434 21be
00000150: adc3 2bbf 3ae1 143f e23a 22be 5d1d debd
00000160: 6072 05bf 1245 843e 7efa 103e a49e f9be
00000170: c4a0 e2be 886a 843d 1753 90be 382d f13c
-0.87297803 -0.34119585 0.48341066 0.17040235 0.35451648 -0.52226347 0.21473901 -0.5865655
0.15004286 -0.52545285 -0.35205796 -0.13362932 -0.021355443 -0.16323437 -0.0456243 -0.25539994
0.42274946 -0.7979841 0.13846698 0.22503036 -0.48133412 -0.3803979 -0.2581904 -0.5795969
-0.49642557 -0.6692607 -0.04934641 -0.99319565 -0.14343992 0.08425823 -0.08632283 -0.1833311
-0.63244 0.58882934 -0.39748514 -0.22488299 0.6036655 0.12016867 0.25740862 0.65886456
0.34741345 -0.26917112 -0.81824017 -0.03350927 -0.023351476 -0.5924865 0.009334616 -0.37247887
0.30997142 -0.20541424 0.706178 -0.86506075 -0.68913513 0.15439318 -0.7421601 0.59141856
-0.30252483 0.5588072 -0.030466424 -0.23429129 -0.27298474 0.4090808 0.019712068 0.5904014
-0.36140463 0.1754247 0.32606 -0.32955912 -0.3605532 0.41750985 0.43901074 -0.96511555
0.008691851 -0.06756539 0.17207408 -0.31826717 -0.38085192 -0.47340232 -0.08919719 0.0206022
-0.47641504 0.64370286 0.13879433 -0.15742737 -0.6709545 0.5815617 -0.15842775 -0.10845444
-0.5212765 0.25833946 0.14158055 -0.48753846 -0.4426328 0.06465632 -0.28188393 0.029440507

model/batch_normalization_2/FusedBatchNormV3 f4 [96]
00000000: 0ee1 2abe f726 cd3d 0b28 adbe 6282 763e
00000010: 5dfd 07bf 0690 39be 1bd4 913f 04df 24bf
00000020: 39a6 79bf 786d 083e 5046 88be a706 a1bd
00000030: 3a78 b1be fef4 81bb 9ef3 6b3e 8afa 23bf
00000040: 2c25 74bc caf0 883c 235d c53f 7594 f2be
00000050: 88d4 b4bc 2a92 e03d d6c7 c1bd 7194 a0be
00000060: 0024 fcbd 8b34 1d3e a0ba a73a 4c3f 8bbe
00000070: 4519 863e 20b0 1ebe 78f7 053c 16d2 95bd
00000080: 6897 5c3e eebb e73e 8cff c7be ab0e 4a3e
00000090: e5aa cdbe 4877 31bf 05f5 e3be 7e75 12bf
000000a0: b26e 423e 9a9c 32be a44f dbbd bb81 32be
000000b0: 8956 aa3d a2d1 0f3e eaef 11be 7374 11be
000000c0: d1f7 babe c464 3fbe 6b81 f8bc dea8 933d
000000d0: 526f d6be 82ae 1bbf 9d56 813d 46f1 c4bd
000000e0: 0aca 753d a5f8 d33e b25a 51be 5f28 eabe
000000f0: 5ada b1bc 9877 28be b9f1 9dbd 1bab 42bf
00000100: 5a6d 0f3e f001 51be 5d53 1ebe f994 b03d
00000110: 20cd 0b3d 4ce8 e03c 168e 903f a60a 59bd
00000120: 10e2 52be a54b a8bd 5c21 2b3e 6c93 06bd
00000130: a6bf 1cbd 08dc 68bd 5752 76be 7bd7 d13d
00000140: 0a97 90bd 51a2 20be 4284 6abd d8e9 f43e
00000150: 15ec d63c f08b 4b3c 2cbc 6fbe bcb3 953e
00000160: 3910 cfbd ceea c23e 8c81 90bd 6dac 3e3e
00000170: 4c83 02bf 0b2c b63e 1204 c23d 943a 8d3e
-0.16687414 0.100171976 -0.33819613 0.24073175 -0.53120977 -0.18121347 1.1392854 -0.64402795
-0.9751926 0.13323009 -0.26616144 -0.07862597 -0.34662038 -0.003965973 0.23042151 -0.6405417
-0.014901441 0.01671638 1.5419048 -0.4737889 -0.022073999 0.109653786 -0.09461944 -0.31363252
-0.12311554 0.15352075 0.0012796707 -0.2719673 0.26191154 -0.15496874 0.008176677 -0.07315461
0.21542132 0.45260566 -0.39062154 0.19732158 -0.40169445 -0.69322634 -0.44522873 -0.5721053
0.1898754 -0.17442551 -0.107085496 -0.17432301 0.083172865 0.14044812 -0.14251676 -0.14204578
-0.36517194 -0.18690783 -0.030335149 0.07209943 -0.41881806 -0.6081315 0.06315348 -0.09616332
0.060007133 0.41400638 -0.20444754 -0.45733926 -0.021710563 -0.16451871 -0.077121206 -0.76042336
0.14006558 -0.20410895 -0.15461488 0.08622164 0.03413117 0.027454518 1.1293361 -0.05298867
-0.20594049 -0.08217553 0.16711944 -0.032855436 -0.038268708 -0.056850463 -0.24054848 0.10246178
-0.070600584 -0.15686919 -0.057255037 0.4783466 0.02623562 0.0124235 -0.23411626 0.2923869
-0.10110516 0.38069767 -0.07055959 0.18620463 -0.50981593 0.35580477 0.094734326 0.27583754

model/batch_normalization_4/FusedBatchNormV3 f4 [96]
00000000: 23bb 043e a018 f73c 03e0 233d 54c0 103e
00000010: 29fc 693d 3d84 3bbe 3f4c 0b3e 4808 dc3d
00000020: e33a 2d3c 515b d2be 88e1 943e 2d9d a3bd
00000030: d62a 00bf cb40 79bd 6c46 d73d 1830 24bd
00000040: 3445 bc3c e60a 5f3d ed9f 4a3e 4049 543e
00000050: 5361 1a3d eed7 48be becd 683b df60 6bbe
00000060: 77e3 2dbe 535e 81be 83cf 163e b500 bebd
00000070: f27a 2bbe 8b6c 97bd ceeb de3c 471b 34bd
00000080: adb9 263e ef63 e73d cadd 1cbe 7d48 6c3d
00000090: 0288 0cbe c0f3 a73c cdbb bbbe 77b3 1e3c
000000a0: 2a8d 183d a3c3 35be ff6d 52bd 88a8 83bd
000000b0: 4ff8 ef3d c64b 873e 6926 3cbe 68b6 f0bc
000000c0: 56dc a43d da96 67bc 1835 1ebd 0a7c e43d
000000d0: cc80 00be aea2 023d 65b9 debd 8238 23bd
000000e0: 4fe9 523e 2bdd 4d3e 7b0b c2bc a6da a5bd
000000f0: 99f1 b93c 8394 103d 551d d13d b3af 553e
00000100: 45f5 5fbe d66c 2c3e c0b4 0b3e fec3 e7bc
00000110: 3add a0bd 657e 37bd 542f a03d 4cec de3d
00000120: 8602 a63d e8c0 a0bb 8fd2 1f3e 58d8 e03d
00000130: f9d6 41bd 6a7e 5cbe b8c0 a1bd f29d 633e
00000140: 702e 3cbe 27b9 1a3d a593 9a3d 1643 dc3c
00000150: 9505 a13d e8f5 e73d 3305 2b3d 34bc 243e
00000160: 0aba 0c3e 23ee debd e4e7 d83d 643b 41bd
00000170: 5d93 1fbe d6f8 03be 84db 423e 1ae8 90bd
0.12962012 0.03016311 0.040008556 0.14135867 0.057125244 -0.18312164 0.13603304 0.10743767
0.010573122 -0.41085294 0.29078317 -0.07988963 -0.5006536 -0.060852807 0.10511479 -0.04008493
0.022982217 0.054453753 0.1978757 0.20731068 0.03769047 -0.1961362 0.0035523023 -0.22986172
-0.16981302 -0.25267276 0.14727597 -0.092774786 -0.16746119 -0.0739375 0.02721205 -0.043971326
0.16281767 0.11298358 -0.15318981 0.057686318 -0.13723758 0.020501971 -0.36666718 0.009686342
0.037244 -0.1775041 -0.05137443 -0.06428629 0.11717283 0.26424998 -0.18374027 -0.029383853
0.08049838 -0.014135087 -0.038624853 0.11156471 -0.12549132 0.031893425 -0.10875205 -0.039848812
0.20596813 0.201039 -0.023687115 -0.080983445 0.02269821 0.03529788 0.10210673 0.20867805
-0.21870907 0.16838393 0.1364317 -0.028291699 -0.078546956 -0.044798274 0.07821527 0.10884914
0.0810595 -0.0049058087 0.15607665 0.10978764 -0.047324155 -0.21532598 -0.07898086 0.2222822
-0.1837709 0.03777423 0.07547692 0.026887458 0.07862393 0.113262 0.041753005 0.16087419
0.13742843 -0.10885265 0.105911046 -0.04717578 -0.15583558 -0.12887892 0.19029051 -0.0707552

model/batch_normalization_5/FusedBatchNormV3 f4 [96]
00000000: e57e b23f 0ad8 a93e 3d80 dabe 84ce 773f
00000010: 3a12 87be d7e8 97bd 1497 173f 8e26 b1be
00000020: 1650 24bf d1ad 40be e0dd 633f 7484 153d
00000030: 60d4 17bf c844 d53d 162c 4cbe 3fce b1be
00000040: fec3 a8bd 6a38 f3be 4bd7 00bf 2159 133f
00000050: c853 513e 685c 63be c34e 83be aa0c aebd
00000060: 7d0c 6bbe fbbb babe 34f0 40be 5458 6fbe
00000070: 0600 4bbd b9e9 c2be 8c37 b4be 627b 2d3f
00000080: 689d e93e 1630 3d3e 54ab cdbe 8891 ca3d
00000090: edf0 c3be 0755 8f3e d995 2fbe 367d c4bd
000000a0: 34bd 333f b0cb f7be 3aa0 5fbe 1016 ae3d
000000b0: 8a60 8b3e 1e18 babe ac74 99bd b435 ad3e
000000c0: 80d5 b73e 9c06 a9be b18f c1be afcb d13d
000000d0: 9c12 bebe e211 1a3e ec68 9fbe b0ab 1d3e
000000e0: 5c51 5f3e 6410 02bf a022 9ebb cbd3 54be
000000f0: 2238 21bf 4eef 923d 7417 53be a074 1d3f
00000100: d871 ecbe a71b 82be 8627 83be 907c 0b3d
00000110: e64b 0ebf 43c5 5dbe df54 77be 3dde 0bbe
00000120: 7853 b4bc 1994 e0be a5fa 0b3f 59e6 773d
00000130: 7423 383e 3281 a2be b555 e2be 0df4 4bbd
00000140: 6f37 82be 6f50 213f 7c8e 8b3e 4b7e 643e
00000150: 14f9 6fbe 2001 053f 465e c8bf 159b 14be
00000160: 9047 e53e 91cd eabe 233c 5b3f 26bc ffbe
00000170: 06b1 90be 11b3 ccbe 98ac be3e 2976 edbe
1.3944975 0.33172637 -0.42675963 0.9679949 -0.26381093 -0.074174576 0.592149 -0.34599727
-0.641847 -0.18816306 0.8901043 0.03650327 -0.59308434 0.104135096 -0.19938692 -0.34727666
-0.082405075 -0.47503978 -0.5032851 0.57557875 0.20442116 -0.22203219 -0.25646028 -0.08498509
-0.22953983 -0.36471543 -0.1884163 -0.23373538 -0.04956057 -0.3806894 -0.3519863 0.6776639
0.45627904 0.18475375 -0.40169775 0.09891039 -0.3826975 0.27994558 -0.17147006 -0.095941946
0.70210576 -0.4839759 -0.21838465 0.08500302 0.2722209 -0.36346525 -0.074929565 0.33830035
0.35905075 -0.33012855 -0.3780494 0.10243928 -0.37123573 0.15045884 -0.31134737 0.15397525
0.2180838 -0.5080626 -0.004825905 -0.20783918 -0.62976277 0.0717455 -0.20614415 0.6150608
-0.46180606 -0.25411722 -0.2561609 0.03405434 -0.5558456 -0.2165728 -0.2415347 -0.13658996
-0.022012457 -0.4386299 0.5467933 0.06052241 0.17982274 -0.31739193 -0.44206014 -0.04979329
-0.25432917 0.63013357 0.27257144 0.22313802 -0.2343486 0.5195484 -1.565377 -0.14512284
0.4478116 -0.4585996 0.85638636 -0.49948233 -0.28260058 -0.39980367 0.37241054 -0.46379212

model/batch_normalization_7/FusedBatchNormV3 f4 [144]
00000000: c145 06be 200a e03d 56d5 cb3d a6d2 d33d
00000010: e1f5 b5ba e214 ae3d 07e0 523e 585f 1d3c
00000020: 56e5 b43d af9d d53e 9fef 823e 8eb9 463d
00000030: 6402 d93d b810 59be 36cd 8ebd 37eb 0f3d
00000040: a4fc 073e 2e44 c1bd 6e0f 2bbd d607 123e
00000050: 4105 813e 9132 2fbd 300f 1dbe e657 adbe
00000060: 4045 debd ec06 1ebd 0da1 bd3d 98aa c83d
00000070: d1c1 933a 1714 893d 7801 2abe af22 263e
00000080: ddc6 1e3e 71e4 13be c2aa d4be 8a4e a33b
00000090: c9df 20bc 2027 163d 7c2a 6ebc a5aa ae3c
000000a0: 16ce d83d dd3d e03e 0985 423d ca4e 5d3d
000000b0: 6a6d aebb 761d abbd 3c62 023e 417f e6bb
000000c0: 66d3 46be 1314 7a3e e12c 58bd a4d7 ca3e
000000d0: 8fe3 443c 6921 80bd e7dd 843e 34ba dbbc
000000e0: 64e4 39be 8ace ce3b d382 453e 1298 fdbd
000000f0: 5b7f 02be 8aa6 a13e a2cc 643d 1d3a 14be
00000100: c012 f63c 75bd 05be a3c3 22bd 6db8 743e
00000110: b6cb e63d c564 14bd 322f 2a3e 9e92 0d3e
00000120: 0d84 bdbc e614 833e b319 4f3d 580f 183e
00000130: f10f 803e 0d51 cfbd bb4f 0e3d 4923 723d
00000140: ae82 d3bb 5c16 563c 324d 883e 17e4 3a3e
00000150: b31b 043e fd05 bfbc 699c ae3d 142d 1c3e
00000160: f875 b73d 99e0 71be 7ff7 0b3d c20f 033d
00000170: a8fa dcbd 62bc bb3d 7570 8d3d c816 21bc
00000180: 4e94 d0bc b2c3 55be aaae 153e 1f8c d9bc
00000190: 37f6 c0bd 45c1 3c3c 2c6a 083e ca65 8d3e
000001a0: 8348 cebd c8b8 adbd c092 e13d cbdf 323e
000001b0: 5900 50bd 4bc1 453e 4910 9dbd 60d3 243e
000001c0: 4ccc 6c3e b58e 423e 557d 953c 3934 29bd
000001d0: c0a2 bfbd 7958 56bb d30e c53d 8e53 0d3d
000001e0: 48b1 1bbe 9cab 553d c4fa e3bb 0923 933d
000001f0: b508 343d c632 c63b bd60 afbc 4e3d 623e
00000200: c60b 4abe 4993 50bd 9aed 0d3d 7d8d 323e
00000210: 61da 8a3d 021b ce3d 285b 953e 08ff 513d
00000220: e9fa 5ebc c327 a93d 2af8 63bc ad81 b03d
00000230: 1b83 1c3d 7524 c33d d23f 383e 4ad5 46be
-0.13112547 0.10939431 0.099528 0.103429124 -0.0013882482 0.08500077 0.20593272 0.009605251
0.08832805 0.41721866 0.2557344 0.048516802 0.10596159 -0.21197784 -0.06972735 0.035136428
0.13279969 -0.09436832 -0.04176276 0.14260802 0.2519932 -0.042772833 -0.15337825 -0.33856124
-0.10853052 -0.03858082 0.092592336 0.09798163 0.0011272972 0.06693285 -0.16602123 0.16224168
0.15505548 -0.14442612 -0.41536528 0.004983728 -0.00981898 0.036658406 -0.014536496 0.021321604
0.10586183 0.43797198 0.047490153 0.054030217 -0.0053231018 -0.083552286 0.12732786 -0.007034213
-0.1941658 0.2442172 -0.052777175 0.39617646 0.012017145 -0.062563725 0.25950548 -0.026822187
-0.1815353 0.0063112425 0.19288187 -0.12382521 -0.12743895 0.31572372 0.055859216 -0.14475293
0.030038238 -0.13060553 -0.039737355 0.23898478 0.112693235 -0.036228914 0.16619566 0.13825461
-0.023134256 0.25601882 0.050561618 0.14849603 0.25012162 -0.10122881 0.034744006 0.05911568
-0.006454787 0.013066854 0.26621395 0.18251072 0.12901191 -0.023318285 0.085259266 0.15251571
0.08958048 -0.23620833 0.034171578 0.03199745 -0.107899964 0.091667905 0.06906215 -0.009832092
-0.025461342 -0.20875433 0.1461741 -0.026556073 -0.09421962 0.011520688 0.13321751 0.2761672
-0.10072424 -0.0848251 0.110143185 0.17468183 -0.05078158 0.19312017 -0.07669122 0.16096258
0.23124808 0.18999751 0.01824824 -0.04130957 -0.09357214 -0.0032706542 0.09621968 0.034503512
-0.15204346 0.052165613 -0.006957384 0.07184417 0.043953616 0.006048533 -0.021408433 0.22093698
-0.19731054 -0.050921712 0.034650423 0.17436786 0.06779934 0.10063745 0.2917111 0.051268607
-0.013609626 0.08259537 -0.013914147 0.08618484 0.03821097 0.09528438 0.17993096 -0.19417301

model/batch_normalization_8/FusedBatchNormV3 f4 [144]
00000000: 53c4 adbe 05a1 f7bd b741 fcbe 369c 6fbe
00000010: beb9 953d 353f 6f3e 4838 723e 1f37 f63e
00000020: be78 a2be dc15 4a3f 44d9 c23d 1151 cc3e
00000030: f24b bd3c e2d0 f5be 6045 e2bd 34d7 a33e
00000040: 1b38 133f 6678 79bf b134 a2be 65b3 203e
00000050: 54d7 4fbe b478 1ebd 5f30 08be bef3 f2be
00000060: 01d4 3abd 6c87 10be 2647 e63e 3a6e 1dbe
00000070: c04c 7ebe a2dd d83e 05dd 10be 46e8 8fbe
00000080: c4bd bf3d 5c50 283d 4543 1abf 406e f33e
00000090: 47a3 e43e 9825 7bbe 9461 313e e077 de3e
000000a0: 9469 3cbe caa7 133f c819 0c3f 57e5 edbd
000000b0: 3bde 1dbe 6c45 e73e 369c 39bd 3cf9 163d
000000c0: 7af7 14be 055e 0c3e 6527 04be aa66 293f
000000d0: d59b e63e 9cf4 ae3e 4989 823f d539 0bbe
000000e0: 5849 cd3c e08b 723d 6862 f5be e898 61bc
000000f0: 6869 f6bd c2da acbe e8e6 c93d cb13 c63c
00000100: da39 cdbe a0dd b43b d838 923c 78ae 143d
00000110: 34f9 15bf c3d1 eebd 3584 6cbd 47db b03d
00000120: 6a1a 95be 4cb4 c1be 5c83 3fbe 42eb 2bbe
00000130: 1a2f c1be c126 083f c492 b43e 1e18 cfbe
00000140: 94fb 22bb 687a 04be 467c 0b3f 2248 773d
00000150: f7e0 28bf 66ed c5bd ce67 3c3e 4647 c3be
00000160: 70cc 5abe a42e 2a3e 52db 4d3e 69f4 3cbf
00000170: f1f3 2dbe 8b05 403e 3403 2e3f 4199 a1be
00000180: e051 d63e b336 b5be c453 13bf cde5 9fbd
00000190: 4c14 c43e f2e5 0d3f 8cff 003f f2f4 49be
000001a0: 8ee3 3fbe 24b3 cf3e f848 efbd 3678 003d
000001b0: 4863 64bd b0e0 58be 06e6 733e 0dad 88be
000001c0: 16fb 7d3d 70b6 353d 1048 213d 384b 2ebe
000001d0: c036 4bbe 104a 64bf d30f 9c3e 03df db3e
000001e0: 90f5 4fbc aca4 40be e0f0 d93b 5813 b4be
000001f0: 204b 07be 6caa 7f3c 5c1f 08be 7add cb3f
00000200: 1f6e 87be 6056 f2bd e38a 913d faae af3e
00000210: da10 98be e46c 57be 806f 1ebb 9029 c2be
00000220: 8e15 423e aa48 ce3d 26db ddbd bc02 2ebc
00000230: f562 a73e 2f8e 113e 62f5 013f 00e9 3ebd
-0.33938846 -0.12091259 -0.49268886 -0.23399433 0.07310818 0.23363955 0.23654282 0.4808893
-0.31732744 0.78939605 0.095140964 0.399056 0.023107503 -0.48010927 -0.110483885 0.32000124
0.57507485 -0.9744934 -0.31680825 0.15693434 -0.20296985 -0.03868933 -0.13299702 -0.47451586
-0.04561234 -0.1411416 0.44976157 -0.1537408 -0.24833965 0.42356592 -0.14146812 -0.28106898
0.09362367 0.04109226 -0.60258895 0.47545052 0.4465582 -0.2452606 0.1732238 0.43450832
-0.1839965 0.576779 0.5472684 -0.11616009 -0.15416805 0.45170152 -0.04531499 0.036858782
-0.1454753 0.1370774 -0.12905653 0.6617228 0.45040765 0.34170997 1.0198146 -0.1359628
0.025059387 0.059215426 -0.4792664 -0.013769366 -0.120318234 -0.3376065 0.09858495 0.02417936
-0.400832 0.005519584 0.01784937 0.0362992 -0.5858338 -0.116611026 -0.05774327 0.08635574
-0.29121715 -0.37832868 -0.18702453 -0.16788962 -0.37731248 0.53184134 0.35268223 -0.40448087
-0.002486919 -0.1293732 0.544865 0.060371526 -0.6596827 -0.09664421 0.18398973 -0.38140315
-0.21367049 0.16619354 0.20103195 -0.7381044 -0.16987588 0.18752114 0.6797364 -0.31562236
0.4185934 -0.35393295 -0.5754969 -0.07807503 0.38296735 0.55428994 0.50389934 -0.19722345
-0.18739149 0.4056636 -0.116838396 0.031364642 -0.055758744 -0.21179461 0.23818216 -0.26694527
0.062007032 0.04436344 0.039375365 -0.17020881 -0.19845104 -0.8917551 0.30480823 0.42943582
-0.012692824 -0.18812817 0.006651029 -0.35171008 -0.13212252 0.015604597 -0.13293213 1.5926964
-0.26451203 -0.11832881 0.07106569 0.34313184 -0.29700357 -0.21037632 -0.0024175346 -0.37922335
0.18953535 0.10072453 -0.10832815 -0.010620769 0.32692686 0.14214395 0.5076505 -0.046608925

model/batch_normalization_10/FusedBatchNormV3 f4 [144]
00000000: ffed 343e 2e6b bdbe ff37 423e 2599 0a3d
00000010: c297 a23c 8b7b 5b3c 6081 acbe 6017 c03c
00000020: 087c d33c cbb8 b5bd 5f40 92be 64e7 6cbd
00000030: f837 943d 8b88 b4bd 7286 a83d 5cf2 51be
00000040: 601e 24be 32b2 a4bc 55f6 813e af35 c8bc
00000050: 4ec1 69be ed4d 82be a180 833d 7b75 3a3b
00000060: 6b13 053c 3062 423e fb25 523d 155b 0abe
00000070: 6040 3c3d 7245 c53d 16c3 60bc b497 2bbe
00000080: 32e2 0ebe 99a2 9dbe a654 eabe b634 0cbe
00000090: a559 09be eae2 79bd 43e6 663e 88d3 c2bd
000000a0: c04b 6d3e 6aeb 87bd a62d 8f3c f67d 163d
000000b0: 6065 d73e eb92 64be 946b 2fbe ba15 aabd
000000c0: bbe4 1a3d ac19 afbe 9822 c13d ec21 56be
000000d0: 0528 7ebe 42e5 51be e4e7 85bd cffe 343e
000000e0: b164 053d 70c0 853e 1845 0fba 4efa d53d
000000f0: 95a6 71bd 1c55 883d ab8f 7e3b 879d d4bd
00000100: cc78 483b 31c7 683e 2af2 da3d 766d 51be
00000110: e220 19be 4238 ca3c b653 51bc 85c0 0bbe
00000120: 080e 3f3e ead0 b73c 24f6 d33c 2f58 a2bd
00000130: e0cd 423e 1257 be3d 4d61 edbc 1c1a 783e
00000140: 2920 1f3e 921c 213e bc82 1b3d 12c4 15be
00000150: 5406 403e eef7 62bd 88a7 bebd e59b f7bd
00000160: 9351 173e bbf7 aa3d 2ffd f6bd 125b 90be
00000170: 7083 493e ac76 bb3c 002e ee39 9aab 563e
00000180: d804 e33c 8995 bbbe 1ded 2f3e 3a17 e6bd
00000190: 793b ab3e 6174 afbe 898e 173d 0c09 cf3d
000001a0: 351f 25be bf5e 36be 89fd 33bd 16ab 073e
000001b0: 9519 72be cfd9 6d3e e382 87be 163d dabd
000001c0: 0624 8dba 0318 bbbd 0a58 b53d 34d5 41be
000001d0: e45c 97bd 6973 30be 89d4 aabd db66 6cbe
000001e0: 20c3 4bbe e0f4 77be 964d 603d e522 36be
000001f0: 56b9 3fbe cf34 15be 809a 24be 98c1 01be
00000200: b446 353b c816 8fbe 385d 41be 542b d73e
00000210: 138f f53d f14a cbba 5097 84bd 3f43 173b
00000220: 6836 8b3d 960d 693e 8e61 853d 0f75 4fbc
00000230: b5e3 b3bd 9867 c73d d9e3 debd b963 9f3d
0.17668913 -0.36995834 0.18966673 0.033837456 0.019847754 0.013396154 -0.33692455 0.023448646
0.025815979 -0.08873137 -0.28564736 -0.05783786 0.07237238 -0.08815106 0.082287684 -0.20502609
-0.16027212 -0.020104501 0.2538325 -0.02443966 -0.22827646 -0.25450078 0.064210184 0.0028451371
0.008122305 0.18982768 0.051305752 -0.13511308 0.04595983 0.09632386 -0.013718387 -0.16757089
-0.13953474 -0.30788115 -0.45767707 -0.13691983 -0.13413103 -0.061007418 0.22548775 -0.09513003
0.23173428 -0.066366985 0.017477822 0.03674122 0.4206953 -0.2232167 -0.17130882 -0.08304925
0.03781579 -0.34199274 0.09430426 -0.20911378 -0.24819954 -0.20497611 -0.0653837 0.17675327
0.03256673 0.2612338 -0.0005465313 0.104481325 -0.058996756 0.06656858 0.0038842957 -0.103816085
0.0030589579 0.22732235 0.106907204 -0.20451912 -0.1495395 0.024685029 -0.012776306 -0.13647659
0.18657696 0.022438485 0.025874205 -0.07926976 0.19023848 0.09293951 -0.02897706 0.2422871
0.15539612 0.15733555 0.037966475 -0.14625576 0.18752414 -0.055412225 -0.09309298 -0.120902814
0.14777212 0.08348032 -0.1206001 -0.2819448 0.19679046 0.022883736 0.0004542917 0.20963898
0.02771227 -0.36637524 0.17180295 -0.11234899 0.33443812 -0.34268478 0.037001166 0.101091474
-0.16125186 -0.1780958 -0.04394296 0.13248858 -0.23642571 0.23227619 -0.26467046 -0.106561825
-0.0010768182 -0.09135439 0.08854683 -0.18928987 -0.07390764 -0.17231525 -0.08341319 -0.23086111
-0.19898653 -0.24214506 0.05476149 -0.17786749 -0.18723044 -0.14570926 -0.16074562 -0.12671506
0.002766055 -0.27947068 -0.18883216 0.42025244 0.1199018 -0.0015510005 -0.06474173 0.0023080853
0.067974865 0.22759089 0.06512748 -0.012662186 -0.08783666 0.09736556 -0.10883302 0.077826925

model/batch_normalization_11/FusedBatchNormV3 f4 [144]
00000000: 9a05 3bbf e203 48be 38da 1ebf d2ee 81be
00000010: d1ae 353f 92a6 8b3e cb5c 2fbe 64da 433e
00000020: a3ff fabc 182f c4be da7a e7be 085b a0be
00000030: f19a e3be d079 a3be 367a 45bf ea60 b6be
00000040: 18d8 b9be ceae a1bd deb9 903f d8ef 93bc
00000050: d99e 9dbe 789b 47be 3462 dabe c975 23be
00000060: ce4e 29be 807d 87bd 0d60 4b3d 45d1 6dbe
00000070: 6cdc 42bf e612 a33d d741 bbbe 68c0 97be
00000080: 0f70 91be 3aae f5be c7ae 45be 992b e7be
00000090: aafa 28be e60c d2bd 9528 55be a548 65bf
000000a0: f081 333f 8087 dbba 3c55 0abf 5f2f 123f
000000b0: 81aa 3740 505f eabe 14b3 febe b655 4a3f
000000c0: 469e f4be 9480 85be c1a4 4ebf 0dc5 b5be
000000d0: 9245 e8be c6ef 87be 9dfb 77bf 9037 54bc
000000e0: 5077 f23b fdf5 a53d 6bba 81bf 9567 163e
000000f0: 16f4 92be b05e 323d 4c47 1fbe 526d bebe
00000100: 3c00 e9be c835 00bf 0e5d 5e3f 8605 a0be
00000110: 2236 cebe 791b 773f ba1a 0ebf 66e9 23bf
00000120: 1278 563f c726 ad3e 4188 2fbe 7645 efbe
00000130: 9c5d b1bf 8f01 cc3e 2785 aebe 7a01 9d3e
00000140: be22 6cbd dea7 a7bd b6ba fa3e d4e8 efbe
00000150: ba98 bdbf 3599 7a3e ff91 8dbf 67f1 6ebe
00000160: 5135 893e 50e3 95bd 841c a8be 7c1c f8be
00000170: 0eb6 e7bd cbcd 62bf f958 9bbf 3017 0d3c
00000180: 5ed2 223f a4d4 a2be 13b7 543f 390d dfbe
00000190: 0f1c b93e 7881 0fbf 90df 103d a859 6bbf
000001a0: 313d babe 0062 8abe 8c2a 8dbe 9015 c6bd
000001b0: 2cc5 4dbe 38b0 a03c e565 fabe eefb 81be
000001c0: c72f 1e3f 86bb 6ebe 7dfa 423f bc05 dbbe
000001d0: 442e 60bd 82a7 f2be 5ddc 8bbd bee5 cabe
000001e0: 861c 9cbe efe9 0abf 1368 78bf 749e de3e
000001f0: 5c73 a9be 82d4 17be fdec fb3c 825f 943e
00000200: 5c22 d93e 0509 3fbe 631f c2be 8191 133f
00000210: 3772 1bbe 1979 debe ef47 0c3f 1c1a 87be
00000220: bfaa 583e d45d b7be 86e6 7f3e 6265 0f3e
00000230: f09f d0bc c60f 233d 1084 dfbe dfe7 afbf
-0.7305542 -0.19532731 -0.62051725 -0.25377518 0.70969874 0.2727552 -0.17125241 0.19126278
-0.030639475 -0.3831718 -0.45210916 -0.3131945 -0.44454148 -0.31928873 -0.77139604 -0.35620815
-0.3629768 -0.078946695 1.1306722 -0.018058702 -0.30785254 -0.194929 -0.42653048 -0.159629
-0.16533968 -0.06615734 0.049652148 -0.23224361 -0.7611759 0.07962589 -0.3657367 -0.29638982
-0.28405806 -0.47984487 -0.19304954 -0.4515045 -0.16501871 -0.102563664 -0.20816262 -0.8956397
0.70120144 -0.0016748756 -0.5403631 0.5710353 2.8697817 -0.45775843 -0.49746 0.79037035
-0.47777003 -0.2607466 -0.80720145 -0.355019 -0.45365578 -0.2655012 -0.96868306 -0.0129527
0.007399477 0.08103559 -1.0135015 0.14687951 -0.28701848 0.043547332 -0.15554541 -0.3719278
-0.4550799 -0.50082064 0.8686074 -0.31254214 -0.40275675 0.96526295 -0.5550953 -0.6402801
0.8377696 0.33818647 -0.1714182 -0.46732682 -1.3856692 0.3984494 -0.34085962 0.3066519
-0.05765032 -0.08186315 0.48970574 -0.4685732 -1.4812233 0.24472506 -1.106018 -0.23334275
0.2679849 -0.07318747 -0.32834256 -0.48459232 -0.11314021 -0.88595265 -1.2136527 0.008611485
0.63602245 -0.31802857 0.8309185 -0.43564776 0.3615422 -0.5605693 0.035369456 -0.9193368
-0.3637481 -0.27027893 -0.27571523 -0.096720815 -0.20094746 0.019615278 -0.48905864 -0.2538752
0.6179165 -0.23313722 0.76163465 -0.42777812 -0.054731622 -0.47393423 -0.0682914 -0.39628404
-0.30490512 -0.54263204 -0.97033805 0.43480265 -0.33095825 -0.14827159 0.030752653 0.28979117
0.42409027 -0.18655784 -0.3791457 0.57643896 -0.15180288 -0.43451765 0.5479726 -0.26387107
0.21158884 -0.35813773 0.24990281 0.14003518 -0.02546689 0.039809965 -0.43655443 -1.3742636

model/batch_normalization_13/FusedBatchNormV3 f4 [256]
00000000: 00cd 763e c82a 40be 6b8e 2abd e867 d43d
00000010: ca81 8e3c 86dd 373d 75f4 94bd dcd6 38be
00000020: f501 fe3c 913b 8cbe 6c2d 723e 8bb1 b1be
00000030: e9ce 65bc f26f c33d 4ea0 a8bc 3c06 163e
00000040: b40b a8bd 5f59 0f3e 4ffc dc3d 9454 013d
00000050: d166 843b 359b 043e 27b0 d83d 4040 f3bc
00000060: 3c0b 93b9 369d 8b3c 6a1e 2cbd eb91 8fbd
00000070: a2d4 1c3c 0212 d4bd 2e28 b5bd a4dc 28be
00000080: 4a35 a1be 0568 0b3e a9d4 263e 7b4a 783d
00000090: 6433 8cbd 4537 0ebd 030f 3b3d 62d2 adbe
000000a0: d887 a1be 7c66 a63e f0dc 33bd 076f 873d
000000b0: 5805 29bd 43f3 9f3d 010b 1a3c 05cf ff3d
000000c0: c40c 34be d28a 1fbe 4cd3 52be ca87 dbbd
000000d0: f709 89bd ac78 e9bd 52b8 7b3e 0c7a 083c
000000e0: 492f 933d 5331 bdbd 91ab 45be f450 453d
000000f0: e787 023d ac79 38bb cd5c cabd 9a82 573e
00000100: 39c5 75bd f0ba efbd a1e9 acbd 78b6 2bbc
00000110: 6b7c cabd 9ead c9bd 7690 75bd 1f72 0cbe
00000120: b5fc 373e 15cf 39bb c01f c03d 1eb1 813e
00000130: c188 88be 82ef c63d 1acb bf3c 8515 3c3e
00000140: f57b acbd bd33 cebc 77c8 9c3e 670e 7c3e
00000150: d0b0 833d d630 0c3a 6ca4 ae3d 11a4 d0bc
00000160: 629b 0dbe baa8 553e b755 74be 02e4 7ebe
00000170: f44d ac3e f19b e6bd 14a5 973d 0110 a3bd
00000180: 7afb 97bd f030 1e3e 150f 383d a0ab c0bd
00000190: a502 e5bd 6bdc c3be fe21 873d b33e a73d
000001a0: 8ed3 0fbc 9789 8f3d ca49 e1bd 24f0 88bd
000001b0: 94f7 563c b756 c93c c440 ffbc 3adc 903d
000001c0: c0ae 1f3e bdce b33d 1fb6 76bc 866a 04be
000001d0: 2b0c 033d 4a0c 8b3e 237b 21be a151 413d
000001e0: a311 4d3e 1b71 ba3d 0879 d13c 0941 903e
000001f0: 4f78 393b fa33 853d 2540 8b3e e951 753e
00000200: 1703 3abc 4cec cf3d c24b fabd 8f2d babe
00000210: b242 8a3d 1a66 89be bce0 9ebd 6507 cd3d
00000220: b159 613d 5e08 a6ba 83a6 71bd f9d3 c73b
00000230: b591 90bd ba88 d73e be47 b4bb 4fa6 8ebe
00000240: cf78 2ebd e6cc 79be 78ec c13d 23b5 653d
00000250: bbf2 8cbd 1934 73bc c6c1 853e 8658 d2bd
00000260: 80fd 7dbe f27c 7f3d 6903 803d 1de2 303e
00000270: 7363 40bb e738 a23e adfe 633d 1fef 313c
00000280: 7d90 77be 5f91 ea3d 783a 7ebc 3b79 cc3d
00000290: b737 353e 846c 95bd eddf 733e 5f7f 893c
000002a0: 9227 5abc 0213 4d3b 3e48 b73c 9eb5 82bd
000002b0: 9ed1 043e 7cd7 3d3d da57 773e b442 87bb
000002c0: bbd0 9bbe 25e6 e83a 4d97 fe3c d47a 98bc
000002d0: c74a 293e 095c d2bd cb18 863d 035f 6cbd
000002e0: d70a 933e 816d cf3d 612e 463e 8527 223e
000002f0: 0adc 2d3e 5bf3 393e 5871 873d 398d 1c3d
00000300: 1612 953e 4ef8 e43c b5ad 8ebd db88 aabc
00000310: 7161 223e 4c3e 133e f640 97bd 3e3e 4ebe
00000320: a806 ecbd 2a55 fd3d 2e80 1a3d 9f12 2b3e
00000330: 8849 663e a933 00be bda1 193e fe37 e4bd
00000340: 2470 673c ae88 04be a2c8 8c3e c49f 383e
00000350: e976 8d3e 648b 24be 8baf af3b 3c67 8fbd
00000360: a9bf 683e e423 d0bd 9236 f03d b5cd b3bd
00000370: 7c51 b3bd 8d37 7c3d 773f d4bd fe12 733e
00000380: 18a0 a73d 3d4a 073c def2 833d 72b0 153e
00000390: f056 313e d7a6 93be 32dc ce3c 7fb6 b13b
000003a0: df82 e33d c445 783d 0373 333e 1c2b 58be
000003b0: 7872 4dbc 1b7a c03c ef89 18be 88be 3b3b
000003c0: 083f 033e 864f 57be 618c 9dbc dd65 2e3d
000003d0: 2290 20be eb1a 693e 668f 813e 8369 203e
000003e0: 2955 21be d60b 7cbd 74eb 4dbe 340b 003d
000003f0: 4dea 88be e57c b1bd e685 403d 6169 263e
0.24101639 -0.1876632 -0.041639727 0.10371381 0.017395873 0.044888996 -0.07273189 -0.18050712
0.031006793 -0.27389196 0.2365014 -0.34705767 -0.014026382 0.09542836 -0.020584252 0.14650816
-0.08205357 0.13998936 0.107903115 0.0315748 0.004040577 0.12949832 0.105804734 -0.029693723
-0.00028046395 0.017042737 -0.042021193 -0.070102535 0.00957218 -0.10354997 -0.08845554 -0.16490418
-0.3148597 0.13613899 0.16292061 0.060617905 -0.068457395 -0.034720678 0.045668613 -0.33949572
-0.31548953 0.32500064 -0.043911874 0.06612974 -0.04126486 0.0781007 0.009402038 0.12490658
-0.17582995 -0.155803 -0.20588416 -0.10719259 -0.06691354 -0.113999695 0.24582031 0.0083298795
0.07186753 -0.092379235 -0.19303729 0.048172906 0.031867888 -0.0028148694 -0.098809816 0.21045914
-0.06000254 -0.117055774 -0.08442999 -0.010480516 -0.09887012 -0.09847568 -0.05995222 -0.13715409
0.17967494 -0.002835219 0.09381056 0.25330442 -0.26666835 0.09713651 0.023412276 0.18367584
-0.084220804 -0.025171155 0.30621693 0.24614869 0.06430209 0.00053478533 0.08527455 -0.025468858
-0.13828805 0.20865145 -0.23860823 -0.24891666 0.33653224 -0.11260212 0.07404533 -0.07962037
-0.07421012 0.15448356 0.04493626 -0.09407735 -0.11182145 -0.38254103 0.0659828 0.08166256
-0.008778466 0.07008665 -0.11000402 -0.06686428 0.013120551 0.024577482 -0.031158812 0.07073255
0.15594006 0.087796666 -0.0150580695 -0.1293126 0.031994026 0.27157813 -0.15769629 0.047196988
0.20026259 0.091036044 0.025570408 0.28174618 0.002830047 0.06504054 0.27197376 0.23957027
-0.011353276 0.10152492 -0.12221481 -0.36362883 0.06751002 -0.2683571 -0.077577084 0.10011176
0.055017177 -0.0012667289 -0.05899669 0.006098267 -0.070590414 0.42096502 -0.0055017164 -0.27861258
-0.04259568 -0.24394569 0.09468931 0.05608095 -0.06882235 -0.014843964 0.261244 -0.10270791
-0.24803734 0.062375017 0.062506504 0.17273755 -0.0029356151 0.31684038 0.0556628 0.010860234
-0.24176212 0.114535086 -0.01551687 0.099840604 0.17697035 -0.07296088 0.2381589 0.016784368
-0.013315098 0.0031291847 0.022373315 -0.06382297 0.12970588 0.04634808 0.24154606 -0.0041278247
-0.30432686 0.0017768784 0.031078005 -0.018613257 0.16532432 -0.102714606 0.06547698 -0.057707798
0.28719208 0.10128308 0.1935363 0.15835388 0.1697847 0.18159239 0.066134155 0.038220618
0.2911536 0.027950432 -0.06966726 -0.02081721 0.15857483 0.14379233 -0.07385437 -0.20140931
-0.11524707 0.123697594 0.037719898 0.16706322 0.22488987 -0.12519707 0.15003105 -0.11143492
0.0141258575 -0.12942764 0.2749682 0.18029696 0.27629784 -0.16068798 0.0053615025 -0.07002112
0.22729363 -0.101630956 0.117291585 -0.0877947 -0.08755776 0.061576415 -0.103636675 0.23737714
0.08184832 0.008257446 0.064428076 0.1461809 0.1731832 -0.28838226 0.025251482 0.0054233666
0.11108946 0.06061341 0.17524342 -0.21110195 -0.0125394985 0.023495724 -0.14896367 0.00286475
0.12817013 -0.2102643 -0.019231977 0.042577613 -0.15679982 0.22764175 0.25304717 0.1566525
-0.15755142 -0.061534725 -0.2010935 0.031260684 -0.26741257 -0.086664 0.047002696 0.16251136

model/batch_normalization_14/FusedBatchNormV3 f4 [256]
00000000: dcbc c1be df12 a4be 2857 7fbd cc92 633d
00000010: cc64 45be 9c90 143f 62e8 923d d8ab e0be
00000020: bbd5 8f3f a856 19bf b675 d53f ae89 813d
00000030: 8468 ef3e 2dd7 8f3f 995b 163f d204 b7be
00000040: 8c01 50be 1861 cc3d a824 a03d 12d3 9cbe
00000050: 9671 4fbf 19ac ba3e 5ba2 aabd 004c 2f3f
00000060: ba17 593f 5c95 acbe 62cb e5bc 8508 113f
00000070: bcbe 41bf 4742 043e ebd5 9dbe 34d6 dabe
00000080: f77d b9be 181f 56bd 20e6 1f3c 164a e5be
00000090: 6c14 4a3e 90f2 6abc 85d0 373f ea12 c6be
000000a0: 7308 25bf ffc4 8c3f af96 a3be 46a6 c8bd
000000b0: e8a2 103e 35c9 88bd 29cd 1cbe b45d fd3e
000000c0: 8e42 143d caa9 28be 2a89 7fbe d5ed 3ebf
000000d0: d249 79bd ec92 6ebe ce74 f2be 6a06 a23e
000000e0: 384a 4b3f 229d 31bf f6cb 17bd 045a d5be
000000f0: 5e0d 073d e240 9cbf fa83 353e 486c 24bd
00000100: c315 e0be 2630 133e 3c33 81bf c74b 8dbe
00000110: 3e0f 3cbf 850a 8bbe c3bf 0a3e 75e3 84be
00000120: 82b2 883f 42a1 80be 2ffb 373f 45eb 9ebe
00000130: 28fa c9be cb57 37be b436 833d 469f f63e
00000140: fcad 81be ac6e a3be b0b2 03bf 0840 593c
00000150: b6f1 ea3e a71d 073e e9af 99be 08cd 8b3e
00000160: 9085 67be 90f9 8b3d 88f4 a8be c93c a1be
00000170: dee5 e23e fc14 8abd 634d fabe b546 47be
00000180: 2e2b b43f 39da 63bf fbef 74bf c09b 2fbe
00000190: c4fb 98be b8e5 acbe 400f 183f c3bb 77be
000001a0: 6207 5cbf 5f99 c53d 7e69 3ebf eed2 e83e
000001b0: 0aa0 933e 4f3a 42bf 0cb6 79be 44d3 54bd
000001c0: c257 8ebe 7a82 ecbe 60da 183e 2c21 943e
000001d0: 9572 e5bd a4c5 d4be 33b0 86be 70c5 d53c
000001e0: a489 df3d 3a5f 5bbf bc43 583e ec3f 79be
000001f0: 5c4d 073f 6613 0fbe d286 303f 16a9 213f
00000200: f4b6 99be 5f71 5b3e 945e ea3e 4704 b0be
00000210: 1978 b63e f990 cabe 1bfb 2abf 688a 41be
00000220: 5648 89bd 64d0 39bd da94 0b3e 72fe 243f
00000230: 1999 0abe 0eb7 db3f 16a8 0abd 25ca edbe
00000240: 1afb 91be 4a4b bcbd 3dde 273e 2ab2 2d3e
00000250: a387 7bbe eab9 acbd 4734 963f d8a7 c9bc
00000260: 718c 61be 4a1f 38be b26f 8cbf 0a0a 3dbe
00000270: 4e60 893f f0c6 a33e 8d1e b8be 5ea0 fdbd
00000280: e45c f1be 8c57 76bf 32f8 b3bd 1663 053e
00000290: bd5c 04be 6027 8abe 5f14 30bf 7286 debd
000002a0: a2e1 da3e 65ad d7bd 0003 4abe 2dbe a5be
000002b0: c66a d03f 0ada 42be 9474 64be 58fc f7be
000002c0: 3b70 10bf 2b95 8ebe ac0f e8bd fcd8 cebe
000002d0: 988e 5bbd 99c5 aabd 6e98 9b3e c1a3 823e
000002e0: edf3 bc3f c641 48bd 003d 513a 5cca b03c
000002f0: 26e0 9ebe ed18 5f3e 59e9 81be 44f1 a53e
00000300: bc68 0d3e 4ebc b6be 401d 3b3c 6b40 96be
00000310: df1c c43e 87f2 243e 524c 36be 9835 c2bd
00000320: 790b 353e fc36 6dbe 89b1 7dbe 8432 d9bf
00000330: dca1 adbd 8400 c1be 596a 13be d6af 67be
00000340: 4f4a 35be 16a3 2abe f905 87bf 47dc b4bd
00000350: 5c16 f53d 4877 75be 008b 26ba b3cc 68be
00000360: 5936 c23e bd4f 84be 256e 92be 8e5e 72be
00000370: a20a 1dbe 6265 fc3e 521c 12be 3b2a d83f
00000380: 4862 6bbe bd04 e23f 840c e43e 13a3 133f
00000390: 4686 9cbd 7271 b1be 2195 3e3e 48ce bbbf
000003a0: afb9 203f cacc 363f 9bb7 f23d 22c9 6abe
000003b0: 9c34 d3be b953 86bd 53c3 f5be 3a2f 00be
000003c0: a0f1 abbc f374 86be 84cd 97be 619f 913e
000003d0: 1ca7 b3be e6a6 cebd a35b 92be 8e87 98bc
000003e0: e1a5 ccbd fe20 2abe 53dd bebe b9a2 1d3d
000003f0: 8440 cdbe 1e88 14bf 3e3c 83bd 48d9 ba3f
-0.378394 -0.32045648 -0.062338978 0.05555992 -0.19276732 0.58033156 0.0717323 -0.43881106
1.12371 -0.5989785 1.6676548 0.063250884 0.46759427 1.1237541 0.58733517 -0.35745865
-0.2031309 0.09979457 0.078194916 -0.30629784 -0.81032693 0.36459425 -0.08331748 0.6847534
0.8480183 -0.33707702 -0.028051082 0.56653625 -0.7568166 0.12915908 -0.3082727 -0.4274155
-0.36228916 -0.052275747 0.009759456 -0.44783086 0.19734353 -0.014340058 0.7180255 -0.38686305
-0.6446602 1.0997618 -0.319509 -0.09797339 0.14124644 -0.06679002 -0.15312637 0.49485552
0.036196284 -0.1647102 -0.24954668 -0.7458165 -0.060861416 -0.23298234 -0.4735474 0.3164552
0.79410124 -0.6938039 -0.037059747 -0.4167024 0.032971732 -1.2207301 0.17726126 -0.040142328
-0.43766603 0.14373836 -1.009376 -0.27596876 -0.7346076 -0.27156463 0.13549714 -0.25954786
1.0679476 -0.2512303 0.7186765 -0.3103887 -0.39448667 -0.17904584 0.06406918 0.4816839
-0.25328052 -0.31920373 -0.5144453 0.013259895 0.45887536 0.13194905 -0.3001702 0.27304864
-0.22609544 0.0683471 -0.32999063 -0.31491688 0.44316 -0.06742284 -0.48887166 -0.19460566
1.4075677 -0.89004856 -0.9567868 -0.17149258 -0.29879582 -0.33769011 0.5939827 -0.24192719
-0.85948765 0.09648394 -0.7437972 0.45473427 0.28833038 -0.7587022 -0.24385852 -0.05195929
-0.2780133 -0.46193296 0.14927053 0.28931558 -0.112034954 -0.41557038 -0.26306304 0.026095122
0.10914925 -0.8569218 0.21119589 -0.2434079 0.52852416 -0.13972244 0.6895572 0.6314863
-0.30022395 0.21429966 0.45775282 -0.34378263 0.35638502 -0.3956373 -0.66789407 -0.18900454
-0.0670325 -0.045364752 0.13631001 0.6445075 -0.13534965 1.7165239 -0.033851705 -0.46443287
-0.28511888 -0.09194048 0.16393371 0.16962495 -0.2456346 -0.08433898 1.1734704 -0.024616167
-0.2202623 -0.17980686 -1.0971587 -0.18460861 1.0732515 0.31987715 -0.35960808 -0.12384103
-0.47141182 -0.96227336 -0.08787574 0.1302608 -0.12926002 -0.26983166 -0.68781084 -0.10865487
0.4275027 -0.10531119 -0.19727707 -0.32371655 1.6282585 -0.19028488 -0.22310096 -0.4843471
-0.5642125 -0.2784818 -0.11331114 -0.4039992 -0.053602785 -0.0833847 0.30389732 0.2551556
1.476194 -0.04889085 0.0007981807 0.021580867 -0.31030387 0.21786852 -0.25373343 0.32410634
0.13809484 -0.3569054 0.011420548 -0.29346022 0.38303277 0.16108142 -0.17802551 -0.094828784
0.17680158 -0.23165506 -0.24774756 -1.6968541 -0.08478138 -0.37695706 -0.14396037 -0.2262567
-0.17704128 -0.16663775 -1.0548698 -0.08831077 0.11967155 -0.23971283 -0.000635311 -0.22734337
0.3793209 -0.25842085 -0.2859966 -0.23668882 -0.15336087 0.492961 -0.14268616 1.6887888
-0.2298671 1.7657696 0.445408 0.57670707 -0.07642798 -0.34656864 0.18611576 -1.4672327
0.6278333 0.71406233 0.11851426 -0.22928289 -0.41251075 -0.065589376 -0.48000583 -0.12518016
-0.02098924 -0.262611 -0.29648983 0.2844191 -0.35088432 -0.10090427 -0.28585538 -0.018619325
-0.099925764 -0.16614148 -0.37278232 0.038485263 -0.40088284 -0.580202 -0.06407975 1.4597559

model/batch_normalization_16/FusedBatchNormV3 f4 [144]
00000000: 58a0 213e db44 193d 3520 7bbd 6d66 31be
00000010: a737 473d 124e 0cbf 5dd1 5fbe 060b 733e
00000020: 18af 313c 87fb 0fbd 7857 c2bd 2520 3d3e
00000030: 365d 503e 7205 80bc 3934 bcbd 4f7f 47be
00000040: 5f77 adbe 0c33 96be b6c0 53be ed47 e7be
00000050: aed8 15be 7094 35bb 7357 903e f4c2 613e
00000060: a36a 663b 4068 57be 517d 4e3e d7b7 323e
00000070: 0527 e0bc 4f5d 9d3e efd6 da3d 4435 83bd
00000080: a514 1abd 4fc0 46be 7ba0 923d fe8c 8d3d
00000090: 9715 fc3d e96d 38bd 4ee8 71be baa8 05bd
000000a0: d4d4 913d fa70 18be de14 4cbe f834 203e
000000b0: 3698 4dbe 504c 973e 98d7 5a3e d51e cd3d
000000c0: 5a53 b2bd 24f5 b7bc 6d97 b9bd 246c 8c3e
000000d0: 21b3 403d d9bd 043e 5507 aebd cb90 94be
000000e0: 22c0 cd3c 2864 65be 3c4d 073e 89d6 cabc
000000f0: f8ce 7c3e a974 f1be 265e a6be 4df1 36be
00000100: 2969 853d b095 0fbf a979 4f3e b6fb 203e
00000110: e54a 373e 13cb 6a3e 4b2a 133e 0f88 bebd
00000120: ea7d 063e f2e0 ce3d 26db f2bd e0e8 d6be
00000130: 6783 dcbb d626 a2be 7ef7 66bc 2cdf a2bd
00000140: b427 c43e 2035 99be bd66 febd 844b 213e
00000150: c084 7fbb 181d 89bd ee6e 90bd 9370 a2bc
00000160: 9ea9 2cbc 8a97 dbbd d508 be3d 66d1 abbe
00000170: c8b8 1abe 5e80 19be 8275 c73e eee9 8e3d
00000180: 8806 ee3d ec4e b9be 218d 193d 8038 b2bd
00000190: 044c 40be 7c67 b0be cafd 47be 9eb5 4e3e
000001a0: 214d a23e 7b62 bc3d fa5b 6a3e fbdc b33e
000001b0: c6e5 133e 78df b7be 77ce c7bb f624 c0bd
000001c0: cff9 4e3e 80c4 debd db5b 873d 42b7 e13d
000001d0: 343e 6e3c 7acf 9ebe c5e2 253c bda8 273e
000001e0: f2b4 13bd 0299 89bd 79a8 473d 9933 08be
000001f0: 1cb3 143c 37fa 93be 4278 623e a8f6 173d
00000200: 90ed 4e3e 706b b73d 86f0 003d fc9d 2b3e
00000210: ca20 633e e135 15be 7fef 9d3d 6b46 85be
00000220: 0da5 9bbe 9f22 193c 491e dc3c db51 4a3d
00000230: 0bfe b0be c777 0f3d 3342 0b3e b379 29bd
0.15783823 0.03741918 -0.061310012 -0.17324229 0.04863706 -0.54806626 -0.2185721 0.23734674
0.010844968 -0.035151985 -0.094893396 0.18469293 0.20348057 -0.015627597 -0.09189648 -0.19482158
-0.33880135 -0.2933582 -0.20678982 -0.45172063 -0.14633438 -0.0027706884 0.28191718 0.22047025
0.0035158775 -0.21035862 0.20164992 0.17452942 -0.027362356 0.3073525 0.106855266 -0.06406644
-0.037617344 -0.19409297 0.071595155 0.06911658 0.123088054 -0.045026693 -0.23623773 -0.032631613
0.07120672 -0.14886847 -0.19929835 0.15645206 -0.20077595 0.2955041 0.21371305 0.10015646
-0.08707304 -0.02245576 -0.09062085 0.27426255 0.04704583 0.12963046 -0.08497492 -0.29016718
0.02511603 -0.22401488 0.13213056 -0.024760501 0.24688327 -0.47159317 -0.32493705 -0.17865486
0.06514198 -0.5608778 0.20261253 0.1572102 0.17899664 0.22929029 0.14371602 -0.09303295
0.1313397 0.10101499 -0.118582055 -0.41974545 -0.0067295316 -0.31670254 -0.014097093 -0.07952723
0.3831154 -0.29923344 -0.124219395 0.15751463 -0.0038989037 -0.06695002 -0.07052408 -0.01982907
-0.010538487 -0.10722263 0.09279028 -0.33558196 -0.15109551 -0.14990374 0.3895684 0.06978212
0.116223395 -0.36193025 0.037488107 -0.08702183 -0.18778998 -0.34453952 -0.19530407 0.20186469
0.3169947 0.09198471 0.22886649 0.35129532 0.1444312 -0.3591268 -0.0060976106 -0.0938205
0.20212482 -0.10877323 0.06609317 0.11021282 0.014541198 -0.31017667 0.010124867 0.16372962
-0.036061235 -0.06718637 0.048744652 -0.13300933 0.009075906 -0.28901836 0.22116187 0.037100464
0.2020781 0.08956039 0.03147938 0.16759485 0.22180477 -0.14571334 0.07711696 -0.26030287
-0.3039936 0.009346633 0.02686991 0.04939447 -0.3456882 0.035026338 0.13599472 -0.041375827

model/batch_normalization_17/FusedBatchNormV3 f4 [144]
00000000: 039a 15bf ae8a 99bf cd3e 253f b7d9 9abf
00000010: 3f0b 983f f80f 333d f898 cebe a245 b73f
00000020: 12e9 1ebf 39f2 68bf 01ba 4ebf c973 183f
00000030: 2dcd 37be 3b98 a6bf d602 22bf 98d8 85be
00000040: 9208 d2be 5ae1 85bf 4084 ccbe 867f a2be
00000050: bd4c 87bf a886 8dbc c3af 163f 15fa 67bf
00000060: eeed 41be c20e 08bf 3b35 a53f 5f5d 3c3f
00000070: 28e3 3a3f fa3d 8a3f 0fa5 9fbf c9fe 91bf
00000080: 1ec8 2ebf 62cf bdbe 82fb 283f fe55 0abf
00000090: 7d7f 173f b5e6 a4be a547 13bf b4d4 87bf
000000a0: 36d0 a6bf 02c9 43bf b26e 87bf 4bb4 153f
000000b0: 68da 77bf 6a12 8dbf b34d 15be 9139 a8be
000000c0: 6a01 a2bf e80f 9c3f 67f5 96bf d27c 943f
000000d0: 74d5 f33e 466e 31bf d445 c93e 4afc 87bf
000000e0: 3442 4fbf b612 f7be 6354 54bf b2d3 b83f
000000f0: 9c3c 6b3f 8f06 dabe 75a3 6ebe 4be2 63be
00000100: 59df 30bf 7801 a0be e8a0 723f 8db5 afbf
00000110: b1f5 0cbf f1ba 1e40 62f1 403f 62b0 663f
00000120: e239 0bbf 4198 07bf 86ee d33f 76cb d8be
00000130: ba2b 67bf f0bc 873c 207e 893f 312f bdbe
00000140: 3ad4 803f 4897 35bf f9c6 eb3e a4e7 a2be
00000150: ce95 b13f ef48 89bf 93a5 d03f b87a 493f
00000160: e622 bfbf 70da b03f 0853 b2be 0091 683b
00000170: 7fad 8cbf f210 dbbe 4661 0040 6d2b 0e3f
00000180: 174f b6be 900d 8dbe c8b0 5a3f 25b6 89bf
00000190: 8c6a b0bf e7c4 23be 75b5 323e 974f 39bf
000001a0: cfae 7abf 8609 223f 98f2 f03e 2263 2dbf
000001b0: 4f0b 793f a1ff 2cbe a70e acbf cfa3 93bc
000001c0: 0ade 223e 685b 30bf b22a b0bf 6696 92bf
000001d0: a8c2 05bf 42b1 d5bd 20e8 29bf 69c1 143f
000001e0: 08ab 4ebf bc63 60bd aecd f93e 9e4f 42bf
000001f0: 8404 36be 4218 02bf 8418 ecbe 1972 9dbe
00000200: 781a 893f 177e b9bf eee9 98be 2673 d8bf
00000210: 70ab 1040 3939 9cbf 8815 df3f 6cae 9abe
00000220: b48f 1abf 454d c5bd 0a9e a1bf 92c0 453f
00000230: 6af7 22be 9ebb 91bf 4a2b e63f c2fd 80bf
-0.5843813 -1.1995447 0.6454895 -1.2097691 1.1878432 0.0437164 -0.4035108 1.4318125
-0.6207439 -0.909946 -0.8075257 0.59551674 -0.17949362 -1.3015207 -0.6328558 -0.2614181
-0.41022164 -1.0459397 -0.3994465 -0.31737918 -1.0570294 -0.017276123 0.5886194 -0.9061597
-0.18938419 -0.5314752 1.290687 0.73579973 0.7300286 1.0800164 -1.2472247 -1.1405879
-0.68274105 -0.37072283 0.6600877 -0.54037464 0.59178907 -0.32207265 -0.57531196 -1.0611787
-1.3032291 -0.7647859 -1.0580657 0.5847823 -0.96817636 -1.1021245 -0.14580421 -0.3285642
-1.2656682 1.2192354 -1.1793641 1.1600592 0.4762379 -0.6930889 0.39311087 -1.0623868
-0.8096039 -0.48256463 -0.82941264 1.4439604 0.9188936 -0.4258313 -0.23304541 -0.22254293
-0.690908 -0.3125112 0.94776773 -1.372728 -0.55062395 2.48016 0.7536832 0.9011289
-0.543852 -0.52966696 1.6557167 -0.42342728 -0.90301096 0.016569585 1.0741615 -0.36950067
1.0064766 -0.7093396 0.46050242 -0.31817353 1.3873842 -1.0725383 1.6300529 0.7870288
-1.4932525 1.3816662 -0.34828973 0.0035486817 -1.0990447 -0.42786366 2.005937 0.5553501
-0.35607216 -0.2754941 0.85425997 -1.0758711 -1.3782516 -0.15993081 0.17452033 -0.7238707
-0.97922987 0.6329578 0.47060084 -0.6772939 0.9728288 -0.1689439 -1.3441972 -0.018022446
0.15905014 -0.68889475 -1.376303 -1.1452148 -0.52250147 -0.104342 -0.6636982 0.5810762
-0.8072972 -0.054782614 0.48789734 -0.75902736 -0.1777516 -0.50818264 -0.46112454 -0.30751112
1.0711203 -1.4491605 -0.29865974 -1.691014 2.2604637 -1.2204963 1.7428446 -0.30211198
-0.60375524 -0.096338786 -1.2626355 0.77246964 -0.15914693 -1.1385381 1.7981961 -1.0077441

model/batch_normalization_2/FusedBatchNormV3;model/dconv_1/depthwise;model/dconv_2/depthwise f4 [1, 3, 3, 96]
00000000: 38da 34bd c119 e9be d0d5 1bbf 5eec 943e
00000010: f0a0 eabf daf2 ae3d 9c4d a5be e4af 3a3f
00000020: 046f 90bf 3b33 c5be d890 b93f 2097 283c
00000030: 1f09 1a3f 4031 5d3f 7690 31c0 4b70 a03c
00000040: 1d93 39be 6f3c a43e 400b 7a3e d15d fd3e
00000050: 53c5 b2bf 5223 38bf 11dd 3e3f 40be 15bd
00000060: 55ec 0bbf 5d21 943e 06e5 e83d d56c 483e
00000070: 6590 c9bf 1234 0d3b 017b e8be 9ab7 373f
00000080: 173a 203f 6583 25bd 4b14 8a3f 515b 90be
00000090: e956 9f3f 1aa3 843e 00d5 43bf 7507 eb3e
000000a0: 33b7 45be be15 1cbf 864f b03f 82b6 963f
000000b0: 2c8e 5c3e ea16 613f a08e d53e 1193 403f
000000c0: 692e c73f 15eb 6c3f f74a 0340 209f 743e
000000d0: 1f63 49bf b0e2 3340 c2e2 de3d d6d3 25bf
000000e0: c541 f9be f3c9 843f 3ad1 fcbe b836 bd3d
000000f0: 2617 503e 50ae 5b3f 0ae9 82bd ceaa 40bf
00000100: 58d3 f13f 58b7 4dc0 27eb 243e 5ea8 0b3f
00000110: c503 31bf 2a2f 8dbf ec68 773e 26ee 163c
00000120: ec00 f23f fc54 693f 43b0 a93e 52c1 75bf
00000130: d8e6 0fbe 608b fabe ac76 343f 460c bbbd
00000140: d1fa 0abe 2846 ccbe 5347 263f a525 6abf
00000150: af21 013e ca43 703e f1c6 d13d a409 7fbe
00000160: 4fb9 b3be 5d66 8dbf 0f54 4a3d 578b 41be
00000170: 8dc3 cf3e 6b41 02c0 4946 92bf ae30 843f
00000180: 4709 503e bf07 4c3f 3a2b 0a40 eede 853f
00000190: f8be 71bf 5a52 de3c cd20 b1bf 3b24 1d3f
000001a0: 2cc6 71bf 606f 5abf 702c e63e d582 6ebf
000001b0: 8a99 a0bf 7ef1 3b3e 1e29 023f ed2b 4d3e
000001c0: 8651 ab3e f402 013e 92ec 60bf ff25 963e
000001d0: 37ec 6e3e 5a97 803f efa4 c73f f7b9 4c3f
000001e0: 3734 b83e 5f97 043f ce61 5dbf 331d d73e
000001f0: 7fd6 0a3f 107f ab3e 9b56 2f3f 0a59 83bf
00000200: 2da4 ed3e 6b8b 1c3d f2f1 a2bf c753 e93c
00000210: 3535 273f 3781 5dbf 423d 81bf 1493 cc3f
00000220: 5eaf f5be 139d 1d3e 9efb ca3e b04c 913d
00000230: 73d4 68bf 7113 abbe aa1f 4ebf 6b79 083e
00000240: 7c55 dd3f 1bce 34bf 6b3a c03f 7b41 4ebf
00000250: 1797 773f 5965 213f 6bf3 babe 1010 66bf
00000260: f019 b4bc a45f 243f cfaa 4fbf 081e 393f
00000270: ed68 a73e fa18 40be 4f9b 833f 8d70 0540
00000280: b3d9 0ebe 7b7b a93f d199 0640 d9a6 94bf
00000290: a2ee 0f3e 46d2 a93e 6ce3 dabf fe64 b2be
000002a0: e430 8bbf 667a fdbe a773 87be 7362 ffbc
000002b0: 4d9c 8bbe 45db 313f f71d 5fbf 95f9 1e3f
000002c0: 9e8b bc3e 167c 7a3f d05a f4bd f21b 3ebf
000002d0: 40f5 423e 2f4e 7abf 42b3 42be aa33 2b3e
000002e0: 9c7a 47be 03ca 2abf 4b3f d93e a240 aabe
000002f0: 8ace 3f3f bf12 0f3e b724 ecbd 0ead 35bf
00000300: 8b14 cf3f eec6 87be ed96 00bf dcf1 45bf
00000310: 8f59 f6ba 614d 1d3f 6e8c a7bf 4677 d43e
00000320: e296 873d a2ad e33e 74f5 febe 8732 943f
00000330: d6f5 a83d 43b8 0f3f 6638 623f 8f25 eb3e
00000340: c806 ed3e 1d32 6a3e 24ab 72bf 86d9 3b3f
00000350: 0a32 913f 1ac5 16bf 2819 2dbf 869a 0d3e
00000360: 4f62 ce3d d5ca e6bf ea06 13bf 8179 b13e
00000370: 9c5c 583f 42af 76bf 9dd7 bebe bb34 b7bd
00000380: 9cff 8b3c 3b91 443c 91a6 2dbe e50d 24bf
00000390: d025 563f 3b09 8a40 153e 5a3f b282 56be
000003a0: 731e 103f 8d70 d1be 871f 5a3e 3062 ea3e
000003b0: 89f3 663e 2a0f 82bf bfda e83e 882c 51be
000003c0: 6a37 473e 2b2b 91be dcaf 113f cd31 353e
000003d0: 07c7 44bb 3a82 093f 234c 05bf d81e 2abf
000003e0: f786 8d3e 71e1 47bd daca 4bbf 7d6c 063d
000003f0: 96fb ba3c ab47 2bbf 1066 463f d456 1d40
-0.044153422 -0.4552746 -0.60873127 0.29086584 -1.8330364 0.08542414 -0.32285774 0.7292464
-1.1283879 -0.38515648 1.4497328 0.010289937 0.6017017 0.86403275 -2.7744422 0.019584795
-0.18122526 0.32077357 0.24418354 0.4948564 -1.3966469 -0.71928895 0.7455607 -0.03655839
-0.5465749 0.28931704 0.11371808 0.19572766 -1.5747191 0.002154593 -0.45406345 0.7176453
0.6258864 -0.04040851 1.0787443 -0.2819467 1.2448398 0.25905687 -0.7649689 0.45904127
-0.19308166 -0.60970676 1.3774269 1.1774447 0.2153861 0.8792559 0.41710377 0.75224406
1.5561038 0.92546207 2.0514505 0.23888826 -0.7866687 2.810711 0.10883094 -0.6477636
-0.4868299 1.037413 -0.49378377 0.092389524 0.2032133 0.85812855 -0.06392105 -0.7526063
1.8892622 -3.2143154 0.16105329 0.5455378 -0.69146377 -1.1030018 0.24161118 0.009212052
1.8906531 0.911453 0.3314229 -0.9599811 -0.14052904 -0.4893446 0.7049358 -0.091332
-0.13572241 -0.39897275 0.6495258 -0.9146369 0.12610506 0.2346336 0.10243023 -0.24906021
-0.35102317 -1.1046864 0.04939657 -0.1890081 0.4057888 -2.0352428 -1.1427699 1.0327356
0.20316039 0.7969932 2.1588883 1.0458658 -0.9443202 0.027138878 -1.3838135 0.6138341
-0.9444301 -0.85326195 0.44955778 -0.93168384 -1.2546856 0.1835384 0.5084399 0.20036288
0.33460635 0.12598783 -0.8786098 0.29325864 0.23332296 1.0046189 1.5597209 0.7997126
0.35977337 0.51793474 -0.86477363 0.42014465 0.54233545 0.33495378 0.68491524 -1.0261548
0.4641432 0.038218897 -1.2730086 0.028482331 0.6531556 -0.8652529 -1.0096819 1.5982385
-0.47985357 0.1539195 0.39645094 0.07094705 -0.9094917 -0.3341327 -0.80517066 0.13327567
1.7291713 -0.7062699 1.5017828 -0.80568665 0.9671492 0.6304527 -0.36513838 -0.8986826
-0.021985024 0.64208436 -0.8112001 0.7231145 0.3269724 -0.18759528 1.0281771 2.0849946
-0.13950233 1.3240808 2.1031382 -1.1613418 0.14055875 0.33168238 -1.7100654 -0.34842676
-1.0874295 -0.49507445 -0.26455423 -0.031174874 -0.27267686 0.69475204 -0.871551 0.6209958
0.3682527 0.9784559 -0.119313836 -0.7426139 0.19038868 -0.9777555 -0.19013694 0.16718927
-0.19480366 -0.66714495 0.424311 -0.33252436 0.7492453 0.13971995 -0.1153044 -0.70967185
1.6178144 -0.2651896 -0.50230294 -0.77322173 -0.0018795001 0.61446196 -1.3089731 0.41497248
0.066205755 0.4446841 -0.4979664 1.157792 0.082500145 0.56140536 0.8836731 0.45927092
0.46294236 0.22870679 -0.9479239 0.7337879 1.1343396 -0.58894503 -0.6761651 0.13828477
0.100773446 -1.803065 -0.57432425 0.34663013 0.8451631 -0.9636117 -0.37273875 -0.089456044
0.017089657 0.011997516 -0.16958071 -0.640837 0.8365145 4.313627 0.8525098 -0.20948294
0.5629646 -0.40906182 0.21301089 0.45778036 0.22553839 -1.0160878 0.4547939 -0.20427144
0.19454733 -0.28353247 0.56908965 0.17694779 -0.0030025856 0.53714335 -0.520693 -0.66453314
0.27642033 -0.048798982 -0.796064 0.032818306 0.022825044 -0.6690623 0.77499485 2.4584246
