odm/firmware/film_model.tflite (tflite, 37332 bytes, 10 tensors)

fc1/bias f4 [3]
00000000: 3504 9c3d 4a54 303e 1b02 8dbe
0.0761799 0.17219654 -0.2754067

sequential/relu0/Relu;sequential/bn0/FusedBatchNormV3;ftr0/bias;sequential/ftr0/BiasAdd;sequential/ftr0/Conv2D f4 [8]
00000000: febe 8dbc 9a54 62be b93c aebd ac79 b23e
00000010: 6b8b e23d 0b9d 64be 8baa 4f3f 3f19 8c3c
-0.017302986 -0.22102585 -0.08507676 0.34858453 0.11061748 -0.22325532 0.811196 0.017101882

sequential/relu1/Relu;sequential/bn1/FusedBatchNormV3;ftr1/bias;sequential/ftr1/BiasAdd;sequential/ftr11/Conv2D;sequential/ftr1/Conv2D f4 [16]
00000000: 752b e6be 39bf 08bf 7459 87bf 9acb 46bf
00000010: 58e9 943e c1c6 7e3f 20c9 82be 2859 babe
00000020: c9e4 47c0 ee03 edbf f84f 1dc0 1d12 8dbf
00000030: 0aa4 eb3e 828b b9bf f955 9abd 6520 0bbf
-0.4495503 -0.5341678 -1.0574174 -0.7765442 0.29084277 0.99522024 -0.2554407 -0.36396146
-3.123339 -1.8516824 -2.458006 -1.1021153 0.4602359 -1.44957 -0.07535929 -0.54346305

sequential/relu2/Relu;sequential/bn2/FusedBatchNormV3;ftr11/bias;sequential/ftr11/BiasAdd;sequential/ftr11/Conv2D f4 [16]
00000000: 9510 82be 6dff 323f e0aa 603f fe87 97be
00000010: 5f08 11bf 6808 0b3e 9fb4 143f 84eb 143f
00000020: e6d5 d33e b957 e2be b1a9 863e 42c7 6dbf
00000030: ea63 ec3e a7c6 563f d931 9d3e 2b72 ae3e
-0.25403276 0.69921 0.87760735 -0.2959594 -0.566534 0.13577425 0.58088106 0.5817187
0.4137413 -0.44207552 0.2630134 -0.9288217 0.46169978 0.8389687 0.30702093 0.34071478

sequential/activation/Relu;sequential/batch_normalization/FusedBatchNormV3;ftr2/bias;sequential/ftr2/BiasAdd;sequential/ftr2/Conv2D f4 [32]
00000000: 06e4 dfc0 bc78 7abf 8555 67c0 56a8 61bf
00000010: 92ee b3bf dae2 0041 0f4a 21c0 f05a ea40
00000020: 42f6 ad40 6649 c440 d8ae 51be 77a6 9e40
00000030: 414f b740 dc8c 163f 83ef ac40 d668 60bf
00000040: 2e8a a9be 9446 27bf 7c11 9fc0 e51c 52bf
00000050: 4820 45be 8484 9ec0 caa6 1bbf 8fcf 49bf
00000060: 6f6c 2fbf ccde bcbf e755 ad40 a691 f340
00000070: 8cf4 5640 d6cf 10bf 1d0a c040 0b44 fbbe
-6.996585 -0.97840476 -3.6145947 -0.88147485 -1.4057181 8.055384 -2.5201452 7.323601
5.436311 6.13396 -0.20476854 4.9578204 5.7284245 0.58808684 5.4042373 -0.87659967
-0.33113235 -0.6534207 -4.9708843 -0.8207534 -0.19250596 -4.953676 -0.60801375 -0.78832334
-0.6852483 -1.4755492 5.416736 7.6115294 3.358676 -0.5656713 6.0012345 -0.4907535

sequential/fc1/MatMul f4 [3, 32]
00000000: 9017 6c3e a944 403f 6a99 063f 6e6a 05bf
00000010: c42e 163f 6218 b0bf 63a0 763f 64d5 a1bf
00000020: c319 a0bf adf9 b7bf 8b35 843f 6ff1 91bf
00000030: 69f2 81bf f8b5 7d3f fb0e a7bf 4338 003f
00000040: 3763 d33e 0317 463f 06fa 5d3f 8f8e e93e
00000050: 9476 373f 438b 213f e732 2b3f f8d6 5c3f
00000060: 5f70 6b3f e4d6 cd3e efc9 adbf 2cee 7cbf
00000070: 43f0 0cbf 3138 19be 7b6c 24bf e90d 7f3e
00000080: b913 93bf fb73 053f ffd1 8dbf 9f8c 393f
00000090: f0dd 2abf 2174 083f e80f 6ebf 2f14 af3e
000000a0: 4c05 473e d266 1fbf 48ad 68be 436a 6bbf
000000b0: 2cbd bfbe f10d 54bf 46d9 b43e 0680 b93e
000000c0: 917a 8c3c a5da 38be fc73 24bf 550c 3f3f
000000d0: 71c6 823e 3ee9 79bf ac75 0e3f 671a 0bbf
000000e0: 1979 8abe c44f 533f 2480 01bf 5a52 463e
000000f0: 62ef 823f 55c9 5c3f a95e 76bf 9284 2b3f
00000100: a41e d93f d566 9ebf f445 c53d 35be 42bf
00000110: 18db 8dbf b0e2 873e c2c8 12bf 72a2 34be
00000120: 3cf8 883f c598 5e3f 12e1 10bf 265d bb3f
00000130: fab1 ac3f 42db a0be 8fd0 2a3e 7974 aabf
00000140: 1815 afbf 46ce 73bf bab1 b63f 052c 4bbf
00000150: 24ef 99bf ff4b 3c3f 9818 80bf bd80 e5be
00000160: 7e3d 05bf f547 acbf 9fd4 963f b40e 7d3f
00000170: bedc 5dbe 30ef 9ebf c873 bd3f f589 4dbf
0.23055863 0.7510477 0.5257784 -0.52115524 0.5866511 -1.3757441 0.9633848 -1.2643247
-1.2507862 -1.437307 1.032884 -1.1401805 -1.0152103 0.9910579 -1.3051447 0.5008585
0.41286632 0.77378863 0.8670963 0.45616576 0.7166531 0.6310312 0.66874546 0.86265516
0.9196834 0.4020301 -1.357725 -0.9880092 -0.5505411 -0.14962842 -0.6422803 0.2490765
-1.1490394 0.521301 -1.1079711 0.72480196 -0.667449 0.533022 -0.9299302 0.34195086
0.19435614 -0.62266266 -0.22722352 -0.9195902 -0.37449014 -0.8283377 0.35322016 0.36230487
0.017148288 -0.18052156 -0.6423948 0.7462819 0.25542024 -0.97621524 0.55648303 -0.5433716
-0.27045515 0.8254359 -0.5058615 0.19367352 1.0229304 0.8624471 -0.9623819 0.6699916
1.6962476 -1.2375132 0.09632483 -0.7607148 -1.1082487 0.26540136 -0.5733758 -0.17640093
1.0700755 0.8695186 -0.5659343 1.4637802 1.3491814 -0.3141728 0.16681121 -1.3316795
-1.3678312 -0.95236623 1.4272988 -0.79364043 -1.2026105 0.7355346 -1.0007505 -0.44824782
-0.52046955 -1.345946 1.1783637 0.9885056 -0.21666238 -1.2416744 1.4800959 -0.8028863

sequential/ftr0/Conv2D f4 [8, 5, 5, 1]
00000000: bdb8 f8ba 8963 c63b e3b1 d7bb 091a 2a3b
00000010: e74f 91bb ba3b 863b 62d5 20ba 8100 80bb
00000020: 8a0d 953b 0fb3 433b d956 523b d5cb e4bb
00000030: fbc2 4a3b b078 84ba 32e2 15bb f5c7 59b8
00000040: 9b2c d4bb 602e dcba 87bd 9eb9 d84f 3a3b
00000050: 23c2 e2ba e6ed 073c 18b6 f3ba a1b8 afba
00000060: f6df ca3a 4397 41bb 5acb d13a 6e15 31bb
00000070: cd04 b9bb 62d3 8f3b 3ba6 35bb 756c 023a
00000080: ac1f b1ba 145f 06ba 25e6 683b 4970 833b
00000090: 92bb daba 8606 ecba d963 4d3b ad8d a9ba
000000a0: acce 663b 13ba c63a 2eaa af3b 1684 36bb
000000b0: c4d1 8d3a 6830 d2b9 b016 27ba 0772 43ba
000000c0: 1644 533a 8f2b 303a a179 673b 2988 3abb
000000d0: 719f 133b f165 ca3a 8f10 8ab9 fdf7 1f3b
000000e0: 7e1e 283b 6c62 96b9 45b4 f538 c0cb 96b9
000000f0: 7a48 15bb cc80 2c3b 4ac0 92bb 0f3c f53b
00000100: f858 cbba 79a2 5c39 38ce c7b9 0f1c 603b
00000110: 7aea c1bb 1e1b c13b 8371 f2b9 de55 383b
00000120: 9f22 8a39 4788 c13a 3765 81b9 db10 8bbb
00000130: 77a0 22bb 2047 dcba dce5 e83a 868b 7b3b
00000140: 298c 87ba 0a27 ce39 b404 19bb 008a 1bb8
00000150: 292a 9339 5f53 843a 26c5 8fba d05b abb9
00000160: 4f9b 63bb 78de 88ba d9eb 3fbb 50bf 433b
00000170: d873 823a 79eb 333b 0351 d3bb 1d02 66bb
00000180: 9f2e 793b 64a6 c939 af9b a7b9 2dd5 f839
00000190: b859 153a 0b97 98ba e3eb bd3a ffcb e03a
000001a0: 67f1 07bb f3cf e03a 5aa9 47bb 9863 bd39
000001b0: 868b ff3a d645 5dba 88de e939 fb80 2b3a
000001c0: 95b2 33bb 39bc f3b9 6611 0b3a e690 043b
000001d0: 5d31 8c3a 06ad 9bbb 504a a5bb 09ae 85bb
000001e0: 1023 1bb8 8a30 c53a ccd5 33bb dcaa 0abc
000001f0: 874d 82bb 94f1 3d3b 051c 193b 4afe 5039
00000200: ab9d 4539 3084 aeba 83b8 b2ba 7a4f 2cbb
00000210: 126e 17b7 6e9b ebbb 6ca8 6d3b 5c6a adbb
00000220: 8848 0ebb 1bcc 993a 7956 0e3b b2ad 59ba
00000230: 141b 1dbb 72ba 4139 0142 1aba 6c01 e63b
00000240: b9b4 7cbb 40c9 77bb 5092 8ebb f3af 553a
00000250: 37c2 ac39 314b 093b 4c0e 21bb 6bd6 09bb
00000260: a8fd 843b 4f8e cbbb 8039 47bb 034e 9d3b
00000270: 6cfe 1abb a04c 323a 290f a6bb c14b 143b
00000280: bb86 c1ba dd45 cab9 dc06 413b ac5e 233b
00000290: 4649 a63a 9afe 3abb 2279 063b 6180 89ba
000002a0: 1325 b4bb b84f 0abb b567 e8bb d0b2 2a3a
000002b0: afca be38 b832 51bb 5d5f 923b 6b37 b539
000002c0: c284 2e3b a327 69bb 8252 993b 6d30 beb9
000002d0: c536 d9bb 320c c13b aef7 f53a 4994 33bb
000002e0: 6a06 ae3a f117 173b 44ea c2ba ddec bab9
000002f0: 472f 673a 60a9 a2bb 1abe ceba e226 e6bb
00000300: d4bb 5f3b 39cf 4bba 8889 bfbb f55c bf3b
00000310: c127 14bc a130 863b 6b55 e739 93a6 05bc
-0.0018975955 0.006054346 -0.006582485 0.002595546 -0.004434574 0.0040964754 -0.0006135312 -0.00390631
0.004548733 0.0029861366 0.0032095222 -0.0069823065 0.0030938971 -0.0010106768 -0.0022870419 -5.1923056e-05
-0.006475044 -0.0016798489 -0.00030277317 0.0028428938 -0.0017300289 0.0082964655 -0.0018593697 -0.0013406464
0.0015478123 -0.0029539622 0.0016006038 -0.002702083 -0.0056463243 0.0043892125 -0.002771749 0.0004975268
-0.0013513467 -0.0005125862 0.0035537567 0.004011188 -0.001668798 -0.0018007315 0.0031340031 -0.00129359
0.00352184 0.0015161656 0.005360863 -0.0027849725 0.0010819961 -0.00040090387 -0.0006373925 -0.0007455651
0.0008059157 0.0006720358 0.00353203 -0.0028462505 0.0022525454 0.0015441758 -0.00026333748 0.0024409287
0.002565294 -0.0002868356 0.00011716088 -0.00028762035 -0.0022778795 0.0026321886 -0.004478489 0.007483966
-0.0015514186 0.00021041361 -0.00038109883 0.0034196412 -0.0059178444 0.005893125 -0.0004624241 0.0028127353
0.00026347206 0.0014765345 -0.00024680208 -0.0042439527 -0.0024814883 -0.0016805865 0.0017768699 0.0038382723
-0.0010341454 0.00039320468 -0.002334875 -3.7083402e-05 0.00028069437 0.0010095647 -0.0010968789 -0.00032684067
-0.0034730022 -0.0010442277 -0.0029284863 0.002986867 0.0009952737 0.0027453585 -0.0064488663 -0.0035096474
0.0038022173 0.00038461678 -0.00031968715 0.00047461074 0.0005697268 -0.0011641694 0.0014489855 0.0017150639
-0.0020743252 0.0017151817 -0.0030465932 0.00036123092 0.0019496537 -0.00084408873 0.00044607022 0.0006542352
-0.0027419676 -0.0004648881 0.0005305022 0.0020227968 0.0010695864 -0.0047508506 -0.005044259 -0.0040795845
-3.6987534e-05 0.0015044373 -0.0027440665 -0.008463588 -0.003976527 0.0028983103 0.0023362648 0.00019931156
0.0001884612 -0.0013314541 -0.0013635311 -0.002629249 -9.025929e-06 -0.0071901595 0.0036263717 -0.00529222
-0.0021710712 0.0011733802 0.0021719022 -0.00083037757 -0.0023972439 0.0001847537 -0.0005884469 0.0070192125
-0.0038559868 -0.0037809163 -0.004350938 0.00081515237 0.00032951098 0.0020949359 -0.0024575172 -0.0021032344
0.0040585585 -0.006212033 -0.0030399263 0.0048005595 -0.0023650182 0.0006801579 -0.005067725 0.002262816
-0.0014764884 -0.00038580495 0.0029453551 0.0024928255 0.0012686632 -0.0028533102 0.0020518978 -0.001049053
-0.0054975837 -0.0021104645 -0.007092441 0.00065116305 9.097659e-05 -0.00319211 0.0044669346 0.000345643
0.0026629423 -0.0035576604 0.004679025 -0.00036275704 -0.0066288435 0.0058913464 0.0018765831 -0.0027401617
0.0013277058 0.0023055042 -0.0014870842 -0.00035653161 0.00088189956 -0.0049640387 -0.0015773207 -0.007023678
0.0034139054 -0.0007774714 -0.0058452524 0.0058399388 -0.009042681 0.0040951525 0.00044123395 -0.00815739

sequential/ftr1/Conv2D f4 [16, 3, 3, 8]
00000000: d0b7 8bbe add4 b93b 4a76 143d ef39 c5bd
00000010: ce65 4dbf 8299 25bd 6da3 54be 6195 28bf
00000020: 89ba 2abd 022b 913d 6f9a 0e3e c4b9 7ebe
00000030: 9ef8 1fbd aa17 99be 1c15 54bd 99b3 433d
00000040: b2b1 a83e a09f bb3d 9b24 9fbd eda3 4d3e
00000050: 1e53 4b3e 4ba1 46be 048c a73e 5a66 41be
00000060: 69ef b43d ab91 55bc e093 3cbe 00a1 823d
00000070: 9216 f23c da34 e9bd 1cc4 ef3c d638 ebbb
00000080: c1f5 a0bd 47a7 7f3d 5ce1 473e a19d 0b3e
00000090: 1015 b03d e1d4 93bd 9533 243d 64ac cd3c
000000a0: e96c 6cbd 810d 87be ca49 c63c 7f03 c03e
000000b0: 7232 b53d f9d8 123e 5077 fa3c d5fe d03d
000000c0: 525a e6be 8ab2 30be e18f 513d c828 b4be
000000d0: 320f 923e e0c1 313e a810 20be d087 bf3d
000000e0: 9876 043d e83c 403b 2127 00bd 2364 9a3c
000000f0: df63 cbbd d8e1 873e bb5e fc3d 9d94 343e
00000100: cb3a f53e 3610 8dbc 0e18 ccbc f2fb 35bd
00000110: 61fd 9fbe 1bbe 84bc 90b3 7d3e 90c6 86bc
00000120: 6286 9ebe dec9 893e 5028 2f3e 3de2 85bd
00000130: f27e f3be dce8 403e 4b15 f03c 4c0d 40be
00000140: 7a29 a23b 6f2f 8fbc 939f 9bbe cd96 cabe
00000150: 18da 2dbf aa43 9a3e 17e1 a13e 1c4c 29be
00000160: b3e9 00be e7f0 193d ef12 473e 332c 953e
00000170: d9c1 3e3f fe5a f43e c3d5 313f bf3a 1f3d
00000180: 0701 a53c 2feb 833d a925 88bd 2d60 b3bd
00000190: 1cb8 b2be 515f 9ebe f68d 0bbd 56c3 363e
000001a0: 5a68 e93e 769e e5be b0ed 23bf 75aa 72bd
000001b0: 1c61 7abf 1049 59be 548b a0be 7232 7cbf
000001c0: 0a24 6fbd b231 9cbc a3b1 b23d a151 013e
000001d0: 80dd d43e 975c 963d 886c 603e b113 a63e
000001e0: c148 2ebe 0cdd 183e 4860 bf3e 5d66 323e
000001f0: 571d 8bbe 4412 96bd 30d5 10be a6d0 ecbe
00000200: 5f57 cc3e 290b b83d 566a c1be cd20 f9bd
00000210: f12f f7be b3b6 7d3e 2377 8b3d 1fc9 ebbe
00000220: b0af d5bb 7997 b7be a21b fb3b e07b 52be
00000230: 0687 533d 0cf0 373e c6a9 3c3e ae60 6c3e
00000240: ffe9 423e fe09 473e a715 a13e 84a6 703e
00000250: e887 62be 050c f23e 64ef 5d3e 5831 ab3e
00000260: 7ad5 ea3d a7c0 0e3e 76b5 2fbd e2b0 20be
00000270: c8b4 6e3c 410b bfbd 66f9 fe3d ffa1 a13d
00000280: 25af f83d b4e3 d43c 63d2 0fbe 8c0f 8ebe
00000290: 0b5f 84be 6174 48be 34b8 06be 4f16 80bc
000002a0: 7929 c73e 03a4 fc3e cd42 86bd 5bf0 743d
000002b0: d57d 4d3d 09e9 b13d c867 1e3d b790 c03d
000002c0: bb88 c23c 2333 29bd c500 36be 3240 2ebe
000002d0: 59ae b8bd 03be 89bc d6d0 93bc eb8e 91be
000002e0: a787 a1bc 4add 963e a860 ee3d 2c03 f43e
000002f0: f6b6 7d3d 794b 633e d63c ad3d 151b 2cbe
00000300: 04fd 823d a79e be3e e686 d13d f2a5 00ba
00000310: 1476 173e 0223 093f d468 d63d b4ff 0b3e
00000320: 7f9a f4bd 7c1c 8cbd c1f5 ccbe 742f a03d
00000330: 0751 0dbe 91eb 33be c595 b9bb 8301 07be
00000340: 5cd5 213e 0a5d b9bd 2d69 efbe 40cf 4c3e
00000350: f3cc 25bf d9c3 033f fa09 2d3e 08b8 65b9
00000360: 076c fabc f893 c7be 8397 83be 7b4e 41be
00000370: 9d03 0c3f bd61 dd3c e549 04be d262 653e
00000380: 079a 55be 6623 f3bd 0a25 e1be c126 043d
00000390: a993 603f 9fc5 173e e73c c33e 431d 083e
000003a0: 832d 97bb 14ce a33c 86f2 cabd 41ae bd3d
000003b0: db43 bd3e 731c 34be 530d f73b be31 903c
000003c0: 2e14 e8bc 3cae fbbe baae 56bd e45f 193e
000003d0: 0a55 51bd b5a5 8f3d 0f33 d2bc 51a1 273e
000003e0: b58a e8bc b23b 393e a522 0cbe 8a28 833e
000003f0: 6fca 263e 8224 cabe 1d6f 623e 16d1 8d3e
-0.27288675 0.005671105 0.03624562 -0.096301906 -0.80233467 -0.0404296 -0.20765467 -0.65852934
-0.0416818 0.07088281 0.13926099 -0.24875551 -0.03905546 -0.29900867 -0.051777944 0.0477787
0.3294807 0.091613054 -0.07770654 0.20082064 0.19855925 -0.19397466 0.3272401 -0.188867
0.08834726 -0.013035218 -0.18415785 0.063783646 0.029551778 -0.11387034 0.029268317 -0.007178406
-0.07859374 0.062415387 0.19519562 0.1363435 0.08597767 -0.07218338 0.040088255 0.025106616
-0.057721052 -0.2637749 0.024205107 0.37502667 0.08847512 0.14340581 0.03057447 0.10204855
-0.44990784 -0.17255607 0.051162604 -0.35187364 0.28527218 0.17359114 -0.15631354 0.09352076
0.032339662 0.0029333178 -0.031287316 0.018846577 -0.09931158 0.26539493 0.12322756 0.17634816
0.47896418 -0.017219644 -0.024913814 -0.044429727 -0.31248 -0.01620393 0.24775529 -0.016452104
-0.309619 0.26911825 0.17105222 -0.06537292 -0.4755779 0.18838829 0.029307028 -0.18755072
0.004948792 -0.017478673 -0.30395183 -0.39568177 -0.6791091 0.3012975 0.31617042 -0.1653294
-0.12589149 0.037583258 0.19440816 0.29135284 0.7451454 0.47725672 0.694668 0.038874384
0.020142091 0.06441342 -0.06647808 -0.087585784 -0.3490609 -0.30932096 -0.03407093 0.17847952
0.45587426 -0.4484746 -0.6403456 -0.05924459 -0.9780443 -0.21219277 -0.313563 -0.98514473
-0.05838398 -0.019066665 0.08725288 0.12628795 0.4157524 0.07341879 0.21916401 0.32436898
-0.17019941 0.14928073 0.37378144 0.17421861 -0.27170822 -0.07327703 -0.14143825 -0.46252936
0.3991041 0.08986504 -0.3777644 -0.121644594 -0.48278764 0.24776725 0.06809833 -0.4605188
-0.0065211877 -0.35857752 0.007663206 -0.20555067 0.05164244 0.17962664 0.18424138 0.23083755
0.19034575 0.19437405 0.31461832 0.2350102 -0.22122157 0.47274795 0.21673352 0.33436084
0.11466499 0.13940679 -0.042897664 -0.15692475 0.014569469 -0.093283184 0.12449913 0.078922264
0.12142781 0.025987484 -0.140451 -0.27746236 -0.25853762 -0.19575645 -0.13156205 -0.015635638
0.3889883 0.4934388 -0.0655571 0.059799533 0.05016883 0.08687026 0.038673192 0.09402602
0.023746839 -0.041308533 -0.17773731 -0.17016676 -0.09017629 -0.016814237 -0.018043917 -0.2842935
-0.019718004 0.29465705 0.116395295 0.4765867 0.061942063 0.2219676 0.08458869 -0.16807206
0.06395915 0.37230417 0.10230808 -0.000490754 0.14791137 0.5356904 0.10469213 0.13671762
-0.1194353 -0.068413705 -0.40031245 0.07821551 -0.1380044 -0.1757033 -0.005663606 -0.1318417
0.15804046 -0.09050949 -0.4675993 0.20000935 -0.6476585 0.51470715 0.16898337 -0.00021907699
-0.03056909 -0.3898008 -0.25701532 -0.18877594 0.54693013 0.027024144 -0.12918814 0.22400978
-0.20859538 -0.11871986 -0.4397357 0.03226352 0.8772531 0.1482148 0.38132402 0.13292412
-0.0046135797 0.019995727 -0.09909539 0.09261752 0.36965832 -0.17588978 0.00753943 0.017601844
-0.028329935 -0.49156368 -0.052412726 0.14977986 -0.05110649 0.07014028 -0.025659112 0.16370131
-0.028386453 0.18089178 -0.13685091 0.25616866 0.1628816 -0.39480978 0.22112699 0.27698582

sequential/ftr11/Conv2D f4 [16, 3, 3, 16]
00000000: 6461 11bd 1963 ad3e 879d 653e bf07 4fbe
00000010: bc08 a1be b481 81be aebf e1bd 905d 743e
00000020: cbf4 31bd b975 68be 3e11 1f3e ab2f f73e
00000030: 643b 093e 5c4b 423e f060 07bd 05c0 82be
00000040: 7193 a1be b8a7 8ebe 0bee 203e 4aa1 033e
00000050: cabe afbe b8af 863e ad01 17be 3293 d2be
00000060: 4e2e dbbe 799c 6ebe 1456 68be 4387 c13e
00000070: 1f66 a2bb 83da f1bd 1985 a8be cee7 90bd
00000080: 02e3 1a3e 09f0 773d 1526 b2bd 6cd2 fe3e
00000090: d40e 99be 59be a33e 252f de3e b2a5 9cbe
000000a0: 7c2e 03bf 381f 323e 257b 613e de53 aebe
000000b0: 1b3e c43e a1c8 2d3d 821e e73a 8fae 373e
000000c0: 58ab 1d3e acb1 f43d 35f2 293e b3d5 39be
000000d0: 924d 2bbd 94ad cfbe 37eb 02be 6c60 22be
000000e0: 5d39 05be 6f5c 873d c4bd 633d 4c97 2cbe
000000f0: 24da 41be 9dfd d3bd b6ba dbbd aba7 68be
00000100: 9c84 593d c1ed 04bd deab d0be e897 193e
00000110: 6d00 d53d bf8a d4be 1d74 03bf 7b90 643e
00000120: 8628 10bf 26cf e53d 9cb0 30be 61e6 81bd
00000130: 83b9 e83d cff6 df3c a650 96be bdf4 a03e
00000140: f566 c13e a710 903e 3dab 7cba c117 5b3e
00000150: 9610 2d3e 34bf 2b3e ce65 90be ca9a f2bb
00000160: 1076 2a3e 90e9 45bf 5d5f 9dbe 031f 593e
00000170: ee25 f93d 4294 cf3d 099f 3e3d a920 fd3d
00000180: 4396 ee3e f728 9abe 7039 453e 9d4f b4bd
00000190: 30ff cdbe 3c89 7abe 27e1 253e 3da0 f7bd
000001a0: d7e7 943e 680d 8f3e 2820 ff3d 21d5 983e
000001b0: fd72 cabd 0789 d33e c190 c4bd 9d5f 923e
000001c0: e2ed 113e 5255 13bd c4e9 1fbe 95d0 3a3e
000001d0: d87f 5dbe 635c ec3e 0892 253d d07d a43c
000001e0: 50fa 74bd e2ce 0f3f 8100 46bd ec54 d43a
000001f0: ae4b 323f ced1 1c3e cd32 56be d6f2 6a3f
00000200: dfc8 d5be e7eb c83d c15b 903e 0aa6 e9be
00000210: c2d7 26be 6f4a 943e e0dc 703e af4a 1e3f
00000220: 9ae3 a33e 2b1e c1be 9c09 1e3e a9c4 49be
00000230: 98a6 283f 43f1 243c c492 0d3f c8af babe
00000240: c57e 59be 274a a7bd 33e1 adbe dc69 1e3e
00000250: fdd3 233e d0ac 333a aaa8 d4be f43e 193e
00000260: 29ea 7ebe e2d2 b53d 9c7b 6bbe 8547 8abe
00000270: d9c5 8bbe 41bf 98be 0b74 18be a0d3 cdbe
00000280: fab9 e5be f01d 85bd 93bf a6be 2f23 87bd
00000290: fbd7 e93d 7f9b ffbc 1db7 273e a8bf 993e
000002a0: 5a71 70be 2011 a0bd c144 d3be 2f82 90be
000002b0: 9ecd 5ebd 8045 a5bc 71e0 31be 5cc3 8bbe
000002c0: dc46 ebbe 8e8b 4abe eda6 97be 0053 2cbe
000002d0: aaed 81bb 2049 513e c556 93be 22e9 18be
000002e0: 1557 883e 3859 103e 4b4d e6bd bf3f bcbd
000002f0: d76e a23e 488f 62be b0bc c9bd 8b40 e0bd
00000300: 29e7 3fbe 227d 22be c3b7 d1be 75ee 3f3e
00000310: 16c6 8c3d 9c7d 343d c3fe a93e d7f7 83bb
00000320: 65ca dfbd b8b9 83bb 484b 603d 4087 2fbe
00000330: eb6c cdbc 91e1 f33d cd51 a03d ebae 66be
00000340: 9c46 e2bd 6c65 bfbc f553 cebd 2126 0ebe
00000350: d383 33bd 99d8 5d3e cb32 ea3d 17c5 4a3e
00000360: bfb2 9c3e 261f 263e ab41 00be 5425 ab3d
00000370: ec0d fabc e1ee 89be c80c b3bd fd17 afbd
00000380: 67b9 d3be a7c7 f93d 75b5 52bd f6f8 903e
00000390: 7958 1abd 7681 a3bd 6446 f13d 464b 8abe
000003a0: 4c22 ac3e c46f 983d e7de 55be 24fa 9bbe
000003b0: 10e4 9cbc 9005 b9be 4e8c abbd e3ab 463e
000003c0: c8e8 1fbe 1b59 bd3d b7b0 ebbd a49e 1d3e
000003d0: 288b d8bd aa7c afbd ada7 82be 31ca cc3d
000003e0: d681 453e 4dec c03d 6734 6d3d cdea 9b3e
000003f0: cf3f 2e3d cbac 59bd 1965 8e3d 4c6f dbbd
-0.03549327 0.33864668 0.22423373 -0.20217799 -0.31451976 -0.25294268 -0.11022888 0.23863816
-0.043446343 -0.22701158 0.15533921 0.48278555 0.13401562 0.1897406 -0.03305143 -0.25537124
-0.315578 -0.27862334 0.15715806 0.12854496 -0.34325248 0.26305938 -0.14746733 -0.41127926
-0.42808765 -0.23301877 -0.22689086 0.3779851 -0.0049560214 -0.11809256 -0.32914045 -0.07075463
0.15125659 0.06053165 -0.0869867 0.49769914 -0.29894125 0.3198116 0.43395343 -0.30595165
-0.51242805 0.17394722 0.22019632 -0.3404836 0.38328633 0.042427663 0.0017632993 0.17937683
0.15397394 0.11947951 0.16596301 -0.18147926 -0.041822024 -0.40562117 -0.1278504 -0.15857095
-0.13010164 0.06609427 0.055600896 -0.1685459 -0.1893087 -0.10351107 -0.10728972 -0.2272021
0.05310498 -0.032453302 -0.40756124 0.14999354 0.10400472 -0.41512105 -0.5134905 0.2232074
-0.56311834 0.11221151 -0.17254871 -0.063427694 0.113635086 0.027339367 -0.29358405 0.3143672
0.37773862 0.28137705 -0.00096385536 0.2139578 0.16900858 0.16772157 -0.2820267 -0.007403706
0.166466 -0.77309513 -0.3073682 0.21203236 0.12165438 0.101357 0.046538386 0.12359745
0.46599016 -0.3010938 0.19260192 -0.088042475 -0.40233755 -0.24466413 0.1619917 -0.1209111
0.2908313 0.27939916 0.12457305 0.29850104 -0.098852135 0.4131548 -0.09597922 0.28588572
0.14250901 -0.03597004 -0.15616518 0.1824363 -0.216308 0.46164235 0.04042247 0.020079523
-0.05980903 0.56175053 -0.048340324 0.0016199625 0.6964673 0.15314409 -0.20917816 0.9177679
-0.41754815 0.0981062 0.28195003 -0.4563449 -0.16293243 0.28963038 0.23521757 0.6183271
0.32009584 -0.3771833 0.15433353 -0.19703926 0.658792 0.010067287 0.5530207 -0.36462235
-0.21239765 -0.0816844 -0.33960876 0.1547007 0.15998836 0.0006854059 -0.4153493 0.14965421
-0.24894013 0.08878113 -0.22996372 -0.2700769 -0.27299383 -0.29833415 -0.14888017 -0.4020052
-0.4486845 -0.06499851 -0.32568035 -0.065985076 0.11418148 -0.031202076 0.16378446 0.30029035
-0.2348074 -0.07815766 -0.41263393 -0.28224322 -0.05439531 -0.020174742 -0.17370774 -0.27297485
-0.459525 -0.19779798 -0.29619542 -0.16828537 -0.0039650993 0.20438051 -0.28777137 -0.14932683
0.26628938 0.14096534 -0.11245211 -0.09191846 0.3172519 -0.2212497 -0.098504424 -0.109498106
-0.18740524 -0.15868047 -0.40960512 0.18743308 0.068737194 0.044065103 0.3320218 -0.0040273475
-0.109272756 -0.004019942 0.054759294 -0.17141438 -0.02507635 0.11908258 0.07828102 -0.22527663
-0.11048624 -0.023363791 -0.10074607 -0.13881733 -0.04382689 0.21664657 0.11435469 0.19801746
0.30605122 0.1622282 -0.1252505 0.08356729 -0.030524217 -0.26940063 -0.08742672 -0.08549497
-0.41352388 0.12196284 -0.051442582 0.28314942 -0.03768203 -0.07983677 0.11781004 -0.27010554
0.33619916 0.074431926 -0.20885812 -0.3046428 -0.019151717 -0.36137056 -0.0837637 0.19401507
-0.15616143 0.09245511 -0.11508315 0.15392548 -0.10573417 -0.085687 -0.2551855 0.099995025
0.1928781 0.09420071 0.057911303 0.30452576 0.04254132 -0.053143304 0.069528766 -0.107145876

sequential/ftr2/Conv2D f4 [32, 3, 3, 16]
00000000: ce6b c5bd d200 d03e 53d6 5e3d 8181 883e
00000010: 6c0c 503e 339d 0fbe bc2d c63e 3722 123f
00000020: 2d10 a03d 90e5 b73e 21cf 353e 7f25 523f
00000030: c559 d23d 0d2c a0be 334b 09bf 1b39 bd3d
00000040: 0600 28bd eee7 083e 587e c83e 76fa bd3e
00000050: ba8d ef3d fe64 a13d 5736 853e 27e6 d1bc
00000060: f66c 393f 263e 823e 82df 5a3e a909 1a3f
00000070: 2f4f bf3e 57c6 e7be d75c 8dbe 1c30 b9ba
00000080: fece 85bc 3c59 e83e 5c72 443e 9ead b23d
00000090: 2976 033f 024b 133e 1de9 563e 5033 6b3e
000000a0: c258 8e3f f0b6 913e a57f d5be cdd5 893e
000000b0: 51c7 4e3f 24c7 53be 4ca3 643e a5cc 063c
000000c0: 4f5e 04bd 9018 e93d 38eb 033f fd84 693e
000000d0: 3cb1 0c3f 9a44 b03e f40f ef3e 431e dc3e
000000e0: 4a8c 973e b201 c03e 840d 90bc e03e 153f
000000f0: a925 88bd 733a d93d 3666 22bf aaf5 99bc
00000100: 568f 5d3e a303 353e 5a29 503e d07e fb3e
00000110: b218 d83e 8805 e83e 8f39 133f 11e6 1f3f
00000120: 8ef0 d43e 43f9 bf3e cd34 a83e f31c 4b3f
00000130: a224 01be 8ed5 97bc 21fa 2cbe 9aa3 7d3e
00000140: 6678 8d3e 2ea5 f63a 5008 a7be 07eb 223e
00000150: 9685 e03e f5ba bd3c 81e3 c63e b32c 023f
00000160: e390 253f 4bae 903e 5837 13be 2890 003f
00000170: 7714 f73e 6e1f e93e 1db2 bcbe c628 b83e
00000180: a2d6 1b3e 8669 993d c6cb b0be 3cb7 ab3e
00000190: 98ed 123f b5f7 663e ce3f a6be 1e56 1d3f
000001a0: dade 793d 92ae a33e b732 a9be cc77 823c
000001b0: ec30 bfbe 965b 6bbe 9fef 2dbf 6b85 bebd
000001c0: ec90 6b3e 0de8 7d3e 311e c8be 3c0d 103f
000001d0: f53b e83e 7e5d 833e e95e e33e 7ae6 4ebd
000001e0: c9f5 c13e dcfa 26bc 2e0e 33bf 6e88 993e
000001f0: 4834 6f3d 8fc6 543e 5905 dabe 999c 823e
00000200: ad6c 9f3e 5844 cabd 0f3c 80be 9340 1c3e
00000210: 324f b43e 089d bf3e 21ce e13e be42 0cbd
00000220: 533a f93e 8573 9bbe 8803 bcbe 86b3 aa3e
00000230: 6cbc 7a3f 785e 603e 738f 05bf ca72 e03d
00000240: 4f45 babe 409c 143e c48c a7be bd57 3bbd
00000250: e152 ab3e e3d0 553e 9dcb a93e ae24 48be
00000260: baa6 343e da76 813f fff6 9c3e 1f64 27bd
00000270: 1f9b d93c e834 a1be 1ff1 a7bd 98c2 6abe
00000280: cf86 8ebe 0e21 5b3e 215b f3be fe98 553e
00000290: 140d 1b3f 69a1 ef3e f9fe c6bd 5d44 163e
000002a0: f8e9 0ebf e972 853e fed3 f2be 3861 c8bd
000002b0: 2ccf a9bd ed63 2dbf afc6 8dbe 0305 d43e
000002c0: 6fcc 843c 409c a6bd e0ba 5f3e d5a0 0a3e
000002d0: c7c5 903e bbe3 f33e 7efb 8e3e c8ef 3a3e
000002e0: 2db2 8cbe f798 523d e79c c1be 1215 1cbc
000002f0: ef8b 6e3d 669c 84be 3c15 3b3e 0eaf 033f
00000300: aeb3 de3e 16e9 e83d 192b bebe 4cb8 a83e
00000310: 45c8 873e 2b7b 3ebe 2f11 04bd 7ce6 85be
00000320: 5dcb a5bd 3206 2c3f 08ce 813e dbe4 423e
00000330: 3b1d 67be 053f 11bf b03f d2be 3481 babc
00000340: 4876 0bbe 6efd f73e 0cef 6c3c fa3f df3e
00000350: c094 a23e 6c41 6e3e 1511 71bd 5481 853e
00000360: 9917 be3e 13f6 2f3e da52 0e3f 47c9 d23b
00000370: b504 d23d a075 42be 0299 c4be 0ff0 b63e
00000380: 397e 523c 25c2 c2bd 0c87 ff3e 2ed7 8abe
00000390: bfb7 70be 85bc d33e 47cc a33c d022 2b3e
000003a0: c7da 6fbd 7d8c 5e3e 311e dc3d 13d1 f6bd
000003b0: 11f5 a0bd 32a5 e9bd f3b3 45bc 17cc 9a3e
000003c0: 006f c93d 02f8 9d3c d3b1 d6be 6084 a73e
000003d0: 2799 bc3e 963c 22be eddf 623d 427b d1bc
000003e0: 549f cc3d b339 053f 1387 0c3f 75b7 ebbc
000003f0: 512a de3d 47a0 12bf 48e8 fdbe 888d ad3e
-0.09639703 0.40625626 0.054403614 0.26661304 0.20317239 -0.1402481 0.38706768 0.5708346
0.07815585 0.3591733 0.17754795 0.82088464 0.102710284 -0.31283608 -0.5363037 0.09239408
-0.041015647 0.13369724 0.39158893 0.3710515 0.11696954 0.07880591 0.2601802 -0.02562244
0.72431886 0.2543804 0.21374324 0.6017099 0.373651 -0.4526851 -0.27609894 -0.0014128718
-0.016334053 0.4538058 0.1918425 0.08724521 0.51352173 0.14384082 0.20987363 0.22968793
1.1120837 0.28459883 -0.41698948 0.2692093 0.8077288 -0.20681435 0.22327918 0.008227502
-0.032316502 0.11381638 0.5153079 0.22804637 0.5495794 0.3442734 0.4669186 0.42991838
0.2959922 0.37501293 -0.01758457 0.58299065 -0.06647808 0.106068514 -0.6343721 -0.0187939
0.2163671 0.17677169 0.20328274 0.49120188 0.4220634 0.4531672 0.575097 0.6246043
0.4158978 0.3749486 0.32852784 0.7934105 -0.1261163 -0.018534448 -0.16892292 0.2476944
0.2763092 0.0018817538 -0.3262353 0.15909968 0.43851918 0.023160437 0.38845447 0.50849456
0.64674205 0.28257975 -0.1437658 0.50219965 0.482578 0.4553179 -0.3685464 0.35968608
0.15218595 0.0749083 -0.34530467 0.33538234 0.5739379 0.2255543 -0.32470554 0.6145953
0.061003543 0.31969124 -0.33046505 0.015926264 -0.37342012 -0.22984156 -0.6794376 -0.09302791
0.23004502 0.24795552 -0.39085534 0.56270194 0.45358244 0.25657266 0.44408348 -0.05051277
0.37882832 -0.0101916455 -0.6994351 0.299869 0.05839947 0.20778869 -0.42582205 0.255101
0.311376 -0.09876317 -0.2504582 0.15259008 0.3521667 0.37424493 0.44102576 -0.034243338
0.4867731 -0.30361572 -0.36721444 0.3334009 0.9794376 0.21911037 -0.5217201 0.10959394
-0.36381003 0.1451273 -0.32724583 -0.04573797 0.3346167 0.20880465 0.33163157 -0.19545242
0.17641726 1.0114396 0.30657193 -0.040866967 0.026563225 -0.31485677 -0.08200287 -0.22925794
-0.27837226 0.21399328 -0.47530463 0.20859143 0.6056683 0.46802834 -0.09716601 0.14674516
-0.5582576 0.26064232 -0.47427362 -0.09784168 -0.08291468 -0.677306 -0.27690646 0.41410074
0.016210763 -0.08135271 0.21848631 0.13537915 0.28275892 0.47634682 0.27926248 0.18255532
-0.27479687 0.05141541 -0.3781502 -0.009526508 0.05823892 -0.25900573 0.18269819 0.5143899
0.4349646 0.113725826 -0.37142256 0.32953107 0.2651998 -0.18601672 -0.03224295 -0.26152408
-0.08095429 0.67196953 0.25352502 0.19032614 -0.22569744 -0.56736785 -0.41064215 -0.022766687
-0.1361934 0.4843554 0.01446129 0.43603498 0.31754112 0.23267144 -0.05885418 0.26075232
0.3712738 0.17183714 0.5559517 0.0064326855 0.10254804 -0.18990183 -0.38397986 0.35730025
0.012847477 -0.095096864 0.4990772 -0.27117294 -0.23507594 0.41354766 0.019994868 0.16712499
-0.05855825 0.2173328 0.10747946 -0.120515965 -0.07859243 -0.11408462 -0.012066829 0.30233833
0.09835625 0.019283298 -0.41932544 0.32718182 0.36835596 -0.15843424 0.055389334 -0.02557147
0.09991327 0.5204117 0.54893607 -0.028774003 0.10847915 -0.57275814 -0.4959128 0.33897042
