odm/firmware/glove_model.tflite (tflite, 10588 bytes, 8 tensors)

fc1/bias f4 [2]
0	0x3db80948	0.08986145
1	0xbdb809a8	-0.08986217

sequential_1/relu0/Relu;sequential_1/bn0/FusedBatchNormV3;ftr0/bias;sequential_1/ftr0/BiasAdd;sequential_1/ftr1/Conv2D;sequential_1/ftr0/Conv2D f4 [8]
0	0xbd10727a	-0.035265423
1	0x3d1ac044	0.037781015
2	0x3f0fcbf7	0.561706
3	0xbe1ddb5e	-0.15415713
4	0xbece7cc5	-0.40329567
5	0xbcc3f866	-0.023922157
6	0xbd9beb13	-0.07613196
7	0xbdeb4c34	-0.11489144

sequential_1/relu1/Relu;sequential_1/bn1/FusedBatchNormV3;ftr1/bias;sequential_1/ftr1/BiasAdd;sequential_1/ftr1/Conv2D f4 [8]
0	0xbefd415d	-0.4946393
1	0x3e43110f	0.19049476
2	0xbec587ab	-0.3858007
3	0x3fcce673	1.6007828
4	0xbf8343c5	-1.0255057
5	0x3c950cd9	0.018194603
6	0x3f8b37f6	1.0876453
7	0xbf05dc5a	-0.52289355

sequential_1/activation/Relu;sequential_1/batch_normalization/FusedBatchNormV3;ftr2/bias;sequential_1/ftr2/BiasAdd;sequential_1/ftr2/Conv2D f4 [16]
0	0xbfae983f	-1.3640212
1	0x3f4e68c5	0.80628616
2	0x40798923	3.8989952
3	0xc068717b	-3.6319263
4	0xbfb2d9c1	-1.3972703
5	0x3ea7acd4	0.32749045
6	0x3da2a7fc	0.07942197
7	0x3f3eb5ef	0.7449636
8	0xbf8eab49	-1.1146022
9	0x409f68f3	4.981561
10	0x3e9a3a7b	0.30122742
11	0x3e8f3de6	0.27976912
12	0xc04c6de4	-3.1942072
13	0xc014d023	-2.3252037
14	0xc012096d	-2.2818253
15	0xbf81e533	-1.0148071

sequential_1/fc1/MatMul f4 [2, 16]
0	0xc0008fbe	-2.0087733
1	0x3f9068a9	1.128194
2	0x3f880ec5	1.0629507
3	0xc01401c3	-2.3126075
4	0xbfeeb9c3	-1.865044
5	0xbfe28826	-1.7697799
6	0x3fbef3c0	1.4918137
7	0x3fa4ecbf	1.2884749
8	0xc01b71e6	-2.4288268
9	0x3fa378ad	1.2771202
10	0x3f98dd60	1.1942558
11	0x3f253b7b	0.64543885
12	0xbfa91e66	-1.3212402
13	0xbfeb9ed4	-1.8407845
14	0xbffe660c	-1.9874892
15	0xbfcdaca2	-1.6068308
16	0x400b7dd1	2.1795542
17	0xbfb21b9a	-1.3914673
18	0xbfb135e7	-1.3844575
19	0x3fd5fb9f	1.6717414
20	0x3fe1a3bc	1.7628093
21	0x3fb9bca6	1.4510696
22	0xbfa22fc5	-1.2670828
23	0xbf929704	-1.1452336
24	0x400de71e	2.2172313
25	0xbf7c83aa	-0.98638403
26	0xbfa577dd	-1.2927204
27	0xbf8ada8f	-1.0847949
28	0x3e880990	0.26569796
29	0x3ff7a77d	1.9347988
30	0x401089a1	2.2584002
31	0x3feac458	1.8341169

sequential_1/ftr0/Conv2D f4 [8, 3, 3, 1]
0	0xbb79b323	-0.0038101159
1	0x3c2d8a55	0.010592063
2	0xba6124ec	-0.00085885706
3	0xbb9c332c	-0.0047668424
4	0x3c4f9f3f	0.012672245
5	0x3a529ac0	0.0008033924
6	0xbbea4089	-0.0071488065
7	0x3b3a1cad	0.002839844
8	0xbaf4a5e0	-0.0018665157
9	0xba7a6125	-0.0009551219
10	0x3aa05105	0.0012231177
11	0x3a83c8c7	0.0010054343
12	0xbb82d4e2	-0.0039926628
13	0x3a98cf4c	0.0011658459
14	0x3bd0a91c	0.0063678157
15	0xbb252823	-0.0025200925
16	0xbc0ce9f9	-0.008600705
17	0x3c34f35d	0.01104435
18	0xbae600fd	-0.0017547902
19	0xb7e258f0	-2.6982714e-05
20	0x3bf50e2b	0.0074784956
21	0xbbbc2051	-0.005741157
22	0xbc0a128c	-0.0084272735
23	0xbb2523f8	-0.002519844
24	0xbb51c141	-0.0032006057
25	0xbc07e192	-0.008293526
26	0xbbf64b75	-0.0075163194
27	0x3c6f29d1	0.014597372
28	0x3c7841f0	0.0151524395
29	0xbb957722	-0.004561321
30	0xbc261165	-0.010135983
31	0xbc97ba83	-0.018521553
32	0xbc300495	-0.01074328
33	0xbb94f5e4	-0.004545914
34	0x3c344115	0.011001845
35	0x3bf56703	0.0074890866
36	0x3bb567d6	0.00553606
37	0xbc37b887	-0.011213428
38	0xbc0eebf8	-0.0087232515
39	0xbb2b8b27	-0.002617547
40	0x3c8da3d4	0.017290033
41	0xbc6d9d4b	-0.014502834
42	0xbb818fc7	-0.003953907
43	0x3c95963b	0.018260112
44	0xbc4ee893	-0.012628692
45	0x3b1b1420	0.0023663118
46	0x3b36a426	0.0027868836
47	0x3a7a9c4b	0.00095600326
48	0x3a9f2d69	0.0012144271
49	0xbb9ccf8d	-0.004785484
50	0xbbc1a629	-0.0059097004
51	0x3be2d3c0	0.006922215
52	0x3b9e8ee0	0.0048388094
53	0x3ba488f8	0.0050212108
54	0xbbd87107	-0.006605271
55	0xbb96b173	-0.0045987903
56	0xbc08a538	-0.0083401725
57	0xbb7cec66	-0.0038593053
58	0xbb34bd0e	-0.0027578506
59	0x3baff477	0.0053697187
60	0x3bbe0596	0.0057990057
61	0x3bcb38f7	0.006201859
62	0x3bd28ef3	0.0064257323
63	0x3b418a59	0.0029531925
64	0xbc7c0866	-0.015382862
65	0xbc0cd8d5	-0.008596619
66	0x3c8344eb	0.016024074
67	0x3c32de0c	0.010917198
68	0x3ca1846b	0.019716462
69	0xbb4fb241	-0.003169194
70	0xbc64c5fa	-0.013963217
71	0xbc484ecd	-0.012225819

sequential_1/ftr1/Conv2D f4 [8, 3, 3, 8]
0	0x3d9c6860	0.076370955
1	0xbc741a5e	-0.014898865
2	0x3c4a2c41	0.0123396525
3	0xbdddea1b	-0.10835668
4	0xbd06b620	-0.03288853
5	0x3daca3c3	0.084296726
6	0x3b4e2093	0.0031452521
7	0xbc2cf6bb	-0.010556872
8	0x3cef2584	0.029192694
9	0xbd7bd199	-0.061479185
10	0xbdb7b0fb	-0.08969303
11	0xbe557335	-0.20844729
12	0xbe8fa64a	-0.28056556
13	0x3e19332c	0.14960927
14	0xbdb79106	-0.08963208
15	0xbde9d896	-0.114182636
16	0x3e1ae567	0.15126573
17	0x3dcc0ae7	0.09963017
18	0xbe7b93fc	-0.2456817
19	0xbc27cb64	-0.010241363
20	0x3c608a8e	0.013704909
21	0x3e43eece	0.19134066
22	0x3c8f2768	0.017474845
23	0x3e0d84f1	0.13820244
24	0x3da53183	0.08066084
25	0xbd10bcd5	-0.035336334
26	0x3de1c8f7	0.11024659
27	0x3e296803	0.16543584
28	0x3d9b4d27	0.07583075
29	0x3e081234	0.13288194
30	0x3d8a0660	0.06739497
31	0xbd962f6f	-0.07333266
32	0xbc6d2631	-0.014474438
33	0xbc2ed137	-0.010669998
34	0xbd4e9188	-0.05043176
35	0xbd4d0295	-0.05005129
36	0xbd6b08e1	-0.057381514
37	0xbc63601b	-0.013877894
38	0xbd5d5e5e	-0.054045074
39	0xbd2a4521	-0.041569833
40	0x3d5cc7d7	0.05390152
41	0xbd5fd5f3	-0.054647397
42	0xbc8f48c4	-0.017490752
43	0xbe09b134	-0.13446504
44	0xbd5936c5	-0.053030748
45	0x3d2d8f4a	0.04237298
46	0x3dd505cd	0.10401497
47	0x3d2c9d97	0.042142477
48	0x3d3360fc	0.043793663
49	0x3d8231b9	0.0635714
50	0x3e12b5e3	0.14327197
51	0x3e11e652	0.14248016
52	0x3c8480a8	0.01617463
53	0x3c38f7e4	0.0112895705
54	0x3d5ceabd	0.0539348
55	0x3cebc3fd	0.028779978
56	0x3da2de63	0.07952573
57	0x3ce55796	0.027995866
58	0xbd683024	-0.056686535
59	0x3e5ab3ce	0.21357653
60	0x3dc7c729	0.09754784
61	0x3e02901a	0.12750283
62	0x3deef1f5	0.116672434
63	0x3d21a3cf	0.03946286
64	0x3dbceb01	0.09224511
65	0x3db39321	0.08768297
66	0xbc94885b	-0.018131426
67	0xbca9161b	-0.020640424
68	0x3dc2e279	0.095158525
69	0x3d8b16a5	0.067914285
70	0x3d97fb0d	0.07420931
71	0x3caeea2d	0.021351898
72	0xbe2bd556	-0.167806
73	0x3d033b78	0.032039136
74	0xbe187dbb	-0.14891712
75	0xbe709b08	-0.2349664
76	0xbe2a3a0d	-0.16623707
77	0xbdfe5e2b	-0.12420305
78	0x3e238036	0.15966877
79	0xbe0e34e7	-0.13887368
80	0x3e2f9db6	0.17150006
81	0x3db963fa	0.09052272
82	0x3e7d3099	0.2472557
83	0xbd874980	-0.06605816
84	0x3d586699	0.05283222
85	0xbd0b9ebf	-0.03408694
86	0xbd89deb1	-0.06731928
87	0x3e10014b	0.14062993
88	0x3a9b9728	0.001187061
89	0x3e66a044	0.22522074
90	0x3d3ccec9	0.046095643
91	0xbcf0eb52	-0.029409084
92	0x3d27c00b	0.04095463
93	0x3d92423d	0.0714154
94	0x3ce38845	0.02777494
95	0x3e09cbd8	0.13456666
96	0xbc3d4166	-0.011551237
97	0xbd64a87f	-0.055824753
98	0xbe9a006e	-0.30078453
99	0xbe74c858	-0.2390455
100	0xbed5b6f4	-0.41741145
101	0xbb5d1174	-0.0033732327
102	0xbd8aa112	-0.06769003
103	0xbe95c717	-0.29253456
104	0xbd8461d9	-0.064639755
105	0x3d8bd466	0.06827621
106	0x3dc1e0e5	0.09466723
107	0xbe23c500	-0.15993118
108	0xbe6a5c53	-0.22886781
109	0x3d61a9f2	0.055093713
110	0xbd041631	-0.032247726
111	0xbc96b80e	-0.018398311
112	0xbce3ce8e	-0.027808454
113	0x3e48ad3a	0.1959733
114	0x3dd2eb2e	0.10298763
115	0xbd36fa04	-0.044672027
116	0x3d719f70	0.058989942
117	0x3e79829a	0.24366227
118	0x3e10188b	0.14071862
119	0x3ddda174	0.1082181
120	0xbd3ed9da	-0.04659448
121	0x3c7eb1b6	0.015545299
122	0xbde32181	-0.11090375
123	0xbe1c637c	-0.15272325
124	0xbef388c7	-0.4756529
125	0xbd395436	-0.045246325
126	0xbcc2cd3b	-0.023779502
127	0xbdc3eb55	-0.095663704
128	0xbccdb4d1	-0.025110634
129	0xbd55f530	-0.052235782
130	0xbd9a6751	-0.07539237
131	0xbdbf4cff	-0.09340858
132	0xbd5c08be	-0.053719275
133	0x3e068157	0.13135277
134	0x3ce967b6	0.028491836
135	0x3c08c7d8	0.008348428
136	0x3d4cd45e	0.050007217
137	0x3db8f61f	0.09031319
138	0xbddda6db	-0.10822841
139	0x3db4e15b	0.08832046
140	0x3d0e0429	0.034671936
141	0x3e439504	0.19099814
142	0x3df05298	0.117345035
143	0x3dc945aa	0.098277405
144	0xbda48263	-0.08032682
145	0xbe26b88d	-0.16281338
146	0xbe05a343	-0.1305056
147	0x3cec6eef	0.028861491
148	0xbdd4b402	-0.10385896
149	0x3da6bf5c	0.08141968
150	0xbd7d2349	-0.06180123
151	0xbe5709a7	-0.20999776
152	0xbccef16f	-0.025261609
153	0xbd01a821	-0.03165448
154	0xbe2b0987	-0.16702853
155	0xbc843a9d	-0.01614123
156	0x3e50c957	0.20389305
157	0x3cb99905	0.022655973
158	0x3d156f15	0.03648289
159	0x3e069a18	0.1314472
160	0xbcdc7260	-0.026910007
161	0x3e08a626	0.1334463
162	0xbe023777	-0.1271647
163	0xbd1a6b33	-0.03769989
164	0xbd8a99fa	-0.0676765
165	0x3d988b1d	0.07448409
166	0x3d20b3c8	0.039233953
167	0x3cd53608	0.02602674
168	0xbe178c6a	-0.14799657
169	0xbd8c4e2d	-0.06850848
170	0x3dd5e7e4	0.1044462
171	0xbde4cff1	-0.11172474
172	0xbe55033f	-0.2080202
173	0xbe148641	-0.14504339
174	0xbdaff8d9	-0.08592386
175	0x3b730ca0	0.0037086383
176	0x3d6a588c	0.05721335
177	0xbc0c3e52	-0.00855978
178	0x3e0c64d8	0.13710344
179	0x3e3caa3a	0.18424311
180	0x3e83248d	0.25613824
181	0xbcea1310	-0.028573543
182	0x3dc50c50	0.09621489
183	0x3e932ef9	0.28746775
184	0x3d84430c	0.06458101
185	0x3d7159a2	0.05892337
186	0x3daefa70	0.08543861
187	0x3e3354b3	0.17512779
188	0x3da57527	0.08078986
189	0x3dac420e	0.084110364
190	0x3de9274c	0.113844484
191	0x3e08e218	0.13367498
192	0xbe2a6926	-0.16641673
193	0x3d5d6b38	0.05405733
194	0xbd5a530a	-0.05330185
195	0x3d85be10	0.06530392
196	0x3ac73288	0.0015197555
197	0x3e3668a2	0.17813352
198	0xbd3f3c73	-0.04668851
199	0xbc321e14	-0.010871429
200	0x3d3e63ba	0.046481825
201	0xbd8b1500	-0.06791115
202	0x3d80a236	0.06280939
203	0x3dab84ca	0.08374937
204	0x3d9fd055	0.07803408
205	0x3dad1e71	0.08453072
206	0x3dcbda67	0.09953766
207	0x3e1c5775	0.15267737
208	0xbe04c0eb	-0.12964217
209	0x3d8d94c6	0.06913142
210	0x3e091712	0.13387707
211	0x3d93b6e5	0.07212619
212	0xbea5c164	-0.32374108
213	0x3db0ae01	0.086269386
214	0x3dd1c75d	0.10243104
215	0x3e0b0c7b	0.1357898
216	0xbe85fc3c	-0.26169002
217	0xbce4fbc7	-0.027952088
218	0x3d83b2b9	0.06430573
219	0xbdba4514	-0.09095207
220	0x3dbe1af7	0.09282487
221	0xbe939cda	-0.28830606
222	0xbc8376f9	-0.016047942
223	0x3dbf90e9	0.09353811
224	0xbe13be26	-0.14428005
225	0x3c8eb352	0.017419491
226	0x3e0027ec	0.12515229
227	0x3d8bc13c	0.06823966
228	0x3e9e514a	0.30921394
229	0x3d95fffb	0.07324215
230	0x3c853516	0.016260665
231	0x3db148b0	0.08656442
232	0xbe911bff	-0.28341672
233	0x3d70b86c	0.05876963
234	0xbe499ccd	-0.19688721
235	0xbe262a8e	-0.16227171
236	0x3e4055c0	0.18782711
237	0x3d21aae4	0.039469615
238	0xbc24ec85	-0.010066156
239	0xbd879192	-0.06619562
240	0xbe3cfb78	-0.18455303
241	0xbe1e0c2a	-0.15434328
242	0xbe8b93cf	-0.27261207
243	0xbdd0d533	-0.101969145
244	0x3e0160b6	0.12634549
245	0xbe7f3f04	-0.24926382
246	0xbe9bae4a	-0.3040641
247	0xbe6fbfc0	-0.2341299
248	0xbeb961e7	-0.36207506
249	0x3e16858f	0.14699386
250	0xbe8f9145	-0.2804052
251	0x3d7cfce6	0.06176462
252	0x3ea089b2	0.31355053
253	0x3e03f943	0.12888055
254	0xbe8124b7	-0.25223324
255	0xbdcd413d	-0.10022209

sequential_1/ftr2/Conv2D f4 [16, 3, 3, 8]
0	0xbf344bf4	-0.70428395
1	0x3e5d6c18	0.21623266
2	0xbca749d6	-0.02042095
3	0xbe29efa4	-0.16595322
4	0x3dbc1e17	0.09185427
5	0x3e9c4548	0.30521607
6	0x3eeb1cf1	0.45920518
7	0xbf3b0253	-0.7305042
8	0xbe5dc430	-0.21656871
9	0x3f6e53ce	0.93096626
10	0x3ddc2774	0.107497126
11	0xbdb82a69	-0.08992464
12	0xbf5702a7	-0.8398842
13	0xbe681587	-0.22664462
14	0x3f39d68b	0.7259299
15	0x3f2d9190	0.67800236
16	0x3f304504	0.6885531
17	0x3f992f0b	1.1967481
18	0x3f2349ec	0.6378467
19	0xbf47d806	-0.78064
20	0x3da6aba0	0.081382036
21	0x3f105e13	0.56393546
22	0xbebe66c5	-0.37187782
23	0x3f8240e5	1.0176054
24	0x3f9d6e50	1.229929
25	0x3f003bd4	0.5009129
26	0x3f44eef1	0.76927096
27	0x38a82c42	8.019108e-05
28	0x3eab498d	0.33454552
29	0x3eb40c09	0.35165432
30	0xbe7a6a23	-0.2445455
31	0x3fce7dd3	1.6132149
32	0x3f12a194	0.572778
33	0x3e0bc9b5	0.13651164
34	0xbfbaf356	-1.460551
35	0xbeecf16d	-0.46277943
36	0x3e7a5181	0.24445154
37	0xbd534d93	-0.051587652
38	0xbea09bc3	-0.31368837
39	0x3d89171c	0.06693861
40	0xbf494364	-0.78618455
41	0xbd24030f	-0.04004198
42	0xbf7c1c17	-0.9848036
43	0x3fa08fed	1.2543923
44	0xbe2a7d17	-0.1664928
45	0xbdff92dc	-0.12479183
46	0x3ee939dc	0.45551956
47	0xbf298d9e	-0.66231716
48	0xbf1fc769	-0.6241365
49	0x3ee9001f	0.45507905
50	0xbf90f141	-1.1323625
51	0x3e2354b9	0.15950288
52	0xbda12a6d	-0.0786942
53	0xbf8967ae	-1.0734766
54	0x3e052d28	0.13005507
55	0xbf0dec40	-0.55438614
56	0xbe19276d	-0.14956446
57	0x3f314e0d	0.6925972
58	0x3f7ef72f	0.9959592
59	0xbea6a8bc	-0.3255061
60	0x3f02842c	0.5098293
61	0xbe6f7281	-0.23383524
62	0xbdf318ac	-0.1186994
63	0x3eff5213	0.49867305
64	0x3fd60841	1.6721269
65	0x3f1d9257	0.6155142
66	0x3f43e49f	0.76520723
67	0xbf3636ea	-0.7117754
68	0x3e2608c5	0.16214283
69	0x3f6408f5	0.8907617
70	0x3e79ec52	0.24406555
71	0x3e6ad0fc	0.22931284
72	0x3e8b7755	0.2723948
73	0x3e06791d	0.13132139
74	0xbe2ea1fb	-0.17053978
75	0xbf466927	-0.775042
76	0x3e542367	0.2071663
77	0x3f56f4c3	0.83967227
78	0xbf2c5af4	-0.67326283
79	0xbebc01da	-0.36720163
80	0xbe8d5596	-0.2760436
81	0xbf42e364	-0.7612822
82	0xbf1b6288	-0.6069722
83	0xbf7de11a	-0.991716
84	0xbf956122	-1.1670268
85	0x3e99b68d	0.30022088
86	0x3e39221f	0.18079422
87	0xbe12620e	-0.14295217
88	0xbe8d9560	-0.27653027
89	0xbe960d6a	-0.2930711
90	0x3e841041	0.2579365
91	0xbf330a54	-0.69937634
92	0x3e153657	0.1457151
93	0x3fa3e3e1	1.2803918
94	0x3fb2b754	1.3962197
95	0x3f251f56	0.6450094
96	0xbe6247dd	-0.22097726
97	0x3c22c7d7	0.009935341
98	0xbeab0cde	-0.33408254
99	0xbc71e87c	-0.014764901
100	0x3f6aa1d6	0.9165319
101	0xbf5702c3	-0.8398859
102	0xc00cd6d0	-2.200611
103	0xbe8cd1b1	-0.27503732
104	0x3d911040	0.070831776
105	0xbd151a43	-0.036402
106	0xbed66647	-0.41874906
107	0xbeab76fd	-0.33489218
108	0x3f40af92	0.752679
109	0x3f745b12	0.9545146
110	0xc00fd481	-2.2473452
111	0x3ead2ece	0.33824772
112	0xbeba390a	-0.36371642
113	0x3ec0d6e9	0.37663963
114	0xbf0781bb	-0.5293233
115	0xc00c7e92	-2.1952252
116	0xbdd8b531	-0.105814345
117	0xbf52e213	-0.8237621
118	0xbf62146a	-0.883124
119	0x3fa00f6f	1.250471
120	0x3ed6b685	0.41936126
121	0xbe3a83e3	-0.18214373
122	0x3e0ad30a	0.13557068
123	0xbcfa36a8	-0.03054364
124	0x3d2a63b4	0.04159899
125	0xbef8ad20	-0.48569584
126	0x3f3dc506	0.7412876
127	0xbe22f6fd	-0.15914531
128	0x3f32e459	0.6987968
129	0x3da90c79	0.08254332
130	0x3f769b3b	0.9633061
131	0x3f0b44f5	0.54402095
132	0xbf86bf45	-1.0527121
133	0x3fd3be69	1.6542484
134	0x3fd46820	1.6594276
135	0xbe862c27	-0.2620556
136	0x3f986494	1.1905694
137	0xbdbbddb9	-0.091731496
138	0x3f7f32c7	0.99686855
139	0x3fe51f3a	1.7900155
140	0xbe818589	-0.25297192
141	0x3f1f09ad	0.6212414
142	0x3f9057a8	1.127675
143	0xbeb9f627	-0.36320612
144	0x3e012a56	0.12613806
145	0x3e2f1e4a	0.17101398
146	0x3e655078	0.22393978
147	0xbefa904b	-0.48938212
148	0xbe503de8	-0.20336115
149	0xbf89b65a	-1.0758774
150	0xbf211f06	-0.62937963
151	0x3babc20d	0.0052416385
152	0xbea9f96c	-0.33198106
153	0x3e9a9389	0.30190685
154	0xbe05b4c4	-0.13057238
155	0xbf5b65d5	-0.8570226
156	0x3f3fc783	0.74913806
157	0x3d5296d3	0.05141337
158	0xbf9227ef	-1.1418437
159	0x3d811227	0.063022904
160	0xbe93a021	-0.28833106
161	0x3e44f391	0.19233538
162	0x3db34802	0.08753969
163	0xbe452b7f	-0.19254874
164	0xbf058a54	-0.52164197
165	0xbfe7e423	-1.8116497
166	0xbf4d6b5b	-0.80241936
167	0xbd8a6e73	-0.06759348
168	0x3f3b1088	0.730721
169	0xbe0c9fd1	-0.1373284
170	0xbcc138de	-0.023586687
171	0x3f14e9ec	0.58169436
172	0x3eb33c6a	0.3500703
173	0x3e05f5da	0.13082066
174	0x3ef05672	0.46940953
175	0x3f02f5da	0.5115639
176	0x3f0965ff	0.5367126
177	0x3eb96fe2	0.36218172
178	0x3dd04fa7	0.101714425
179	0xbe9a5b81	-0.30147937
180	0xbdd1d384	-0.102454215
181	0xbecf434d	-0.40481034
182	0xbe6464cf	-0.2230408
183	0xbe71ce2e	-0.23613808
184	0xbeeeac8e	-0.46616024
185	0x3f310852	0.6915332
186	0x3ee881f0	0.45411634
187	0xbfa72a55	-1.3059794
188	0xbfb59921	-1.4187356
189	0xbfb63cdd	-1.4237324
190	0xbf0db0ab	-0.553477
191	0xbead6170	-0.338634
192	0x3f70f184	0.94118524
193	0x3e90f538	0.28312087
194	0x3e3fa32d	0.1871459
195	0x3f88f6ef	1.0700358
196	0x3e431c75	0.19053824
197	0x3f2064fb	0.62654084
198	0xbf0a9bba	-0.5414387
199	0x3e8af1c7	0.27137586
200	0x3ebe3660	0.3715086
201	0x3f0e11b2	0.5549575
202	0x3e0de004	0.13854986
203	0x3f45406f	0.7705144
204	0xbded2091	-0.11578477
205	0xbf69e8c9	-0.91370827
206	0xbf80a219	-1.0049468
207	0xbf856852	-1.0422461
208	0x3d523871	0.051323358
209	0xbe82f0d5	-0.25574365
210	0x3f1a5b40	0.60295486
211	0xbf8e863d	-1.1134716
212	0xbf4242ac	-0.75882983
213	0xbf8cc4d5	-1.0997568
214	0xbe2c4ccf	-0.16826175
215	0xbe1fce94	-0.15606147
216	0xbe7930b2	-0.24334982
217	0x3e71df33	0.236203
218	0xbd2702f2	-0.040774293
219	0xbe4752e7	-0.19465218
220	0xbd21e38d	-0.03952365
221	0x3e85131e	0.25991148
222	0xbe4572b3	-0.19282036
223	0x3e84c1ad	0.25929013
224	0xbf4e5aab	-0.806071
225	0x3fc5240a	1.5401623
226	0x3dba9fa9	0.09112484
227	0xbf665cf3	-0.8998558
228	0xbe3069bc	-0.17227834
229	0x3f1b445b	0.6065118
230	0x3f213f9e	0.629877
231	0x3f4f57fa	0.80993617
232	0x3daeb4e6	0.085305974
233	0x3f9188d3	1.136988
234	0x3f292dd5	0.6608556
235	0x3ccc6793	0.024951732
236	0xbf55ce3a	-0.835178
237	0x3fc99021	1.574711
238	0x3f95cabc	1.1702495
239	0x3fb66901	1.4250795
240	0xbef6c34a	-0.4819587
241	0x3f633520	0.8875294
242	0xbebe44b8	-0.37161803
243	0xbd13e625	-0.036108155
244	0xbe7f8a0f	-0.24955009
245	0x3de7b207	0.11313253
246	0x3e4afcd8	0.19823015
247	0xbebbfd69	-0.36716774
248	0x3eb7155e	0.3575849
249	0x3f605b46	0.8763927
250	0x3ed3c444	0.41360676
251	0xbeaaff39	-0.33397844
252	0xbde7d71e	-0.11320327
253	0x3f870d4d	1.0550934
254	0x3fc8a7f8	1.567626
255	0x3fdbcf08	1.7172556
